actor_local_1.pt (torch_old, 531478 bytes, 10 tensors)

fc1.weight f4 [400, 24]
0	0xbc9d7e95	-0.019225398
1	0x3dccdc69	0.100029774
2	0xbc27c962	-0.0102408845
3	0xbd0086c6	-0.03137853
4	0xbd8db91f	-0.06920075
5	0x3d950964	0.07277182
6	0x3c5c9b7c	0.013464805
7	0x3cff84c9	0.031191247
8	0x3d411035	0.047134597
9	0x3c7aba50	0.015303209
10	0xbcc26466	-0.023729514
11	0xbcdcf1de	-0.0269708
12	0x3c843126	0.016136717
13	0x3d793169	0.060838137
14	0x3d0b64d8	0.03403172
15	0x3a9b85fa	0.001186549
16	0x3b8dc296	0.004326175
17	0xbc035b34	-0.00801735
18	0xbd0a4f50	-0.033767045
19	0x38595bca	5.1822317e-05
20	0x3e2347d6	0.15945372
21	0xbcf6183b	-0.03004085
22	0x3d3915cb	0.0451868
23	0x3d07a9ee	0.033121042
24	0x3d4c79f9	0.04992101
25	0x3bd641b9	0.0065385965
26	0x3c2e378a	0.010633359
27	0x3d28f020	0.041244626
28	0xbae349c0	-0.0017340705
29	0xbdcb84a8	-0.099374115
30	0x3b8a951c	0.004229201
31	0x3d159215	0.036516268
32	0xbcf7ea37	-0.03026305
33	0xbcb33616	-0.021876376
34	0x3cebdcaa	0.028791744
35	0x3c75b701	0.014997245
36	0xbda00538	-0.078134954
37	0x3c4a0728	0.012330808
38	0xbc00eb74	-0.007868636
39	0x3c1269cd	0.008936358
40	0x3d043682	0.032278545
41	0xbd008a9e	-0.031382196
42	0x3b90ed65	0.004422831
43	0x3e2f0932	0.17093351
44	0x3ad77efb	0.0016441041
45	0xbdd66ad1	-0.10469592
46	0xbb55ec7e	-0.003264218
47	0x3e402dca	0.18767467
48	0xbc5da877	-0.013528935
49	0xbdafde48	-0.08587319
50	0xbc5fd413	-0.013661402
51	0x3cfb1d1e	0.030653533
52	0x3b068b8d	0.0020529956
53	0xbd9d92aa	-0.076939896
54	0xbc165743	-0.009176078
55	0x3d29ccab	0.041454952
56	0x3cc83754	0.024440445
57	0xbd925bdc	-0.07146427
58	0x3d060b54	0.032725647
59	0xbdbe88cc	-0.09303436
60	0x3ccbb9a9	0.024868803
61	0xbd5ed4b1	-0.054402057
62	0x3cca58c3	0.024700528
63	0xbd611a71	-0.054956857
64	0x3c963335	0.018334964
65	0xbdc738ec	-0.09727654
66	0x3c9e0247	0.019288195
67	0xbc8167d0	-0.015796572
68	0x3d1e01f7	0.038576093
69	0xbda6b992	-0.081408635
70	0x3da2f96e	0.07957731
71	0xbd6a04a4	-0.057133332
72	0x3daf06e9	0.0854624
73	0x3ac2e60b	0.0014869584
74	0x3c9bdf8f	0.0190275
75	0x3c17ec33	0.009272623
76	0xbb59a866	-0.0033211946
77	0x3df83b30	0.12120664
78	0xbcc8cde5	-0.02451224
79	0x3cbf3de3	0.02334494
80	0x3e0c908c	0.13727015
81	0x3ba0d108	0.004907731
82	0xbccd159a	-0.025034714
83	0x3d693a41	0.05694032
84	0x3ca4eb2e	0.020131674
85	0xbd48928c	-0.048967883
86	0x3bf81858	0.0075712614
87	0x3d6b7245	0.057482023
88	0x3d9e3e21	0.07726694
89	0x3d27866b	0.040899675
90	0xbcbe9da5	-0.02326853
91	0x3c78de59	0.015189731
92	0xbd758ef3	-0.05995078
93	0xbe02b6e9	-0.12765087
94	0x3cc3ee6a	0.023917396
95	0xbc3386e4	-0.010957453
96	0xbcbb2ea4	-0.022849388
97	0xbdb202f6	-0.08691971
98	0x3cdcd797	0.02695827
99	0x3bc85183	0.0061132326
100	0xbd1f0c55	-0.03883012
101	0xbda8a176	-0.08233921
102	0x3c8eea19	0.01744561
103	0x3d868920	0.06569123
104	0xbdae780c	-0.08518991
105	0xbd2fb344	-0.04289557
106	0x3d860627	0.06544142
107	0xbd086f22	-0.03330911
108	0xbd4f4e29	-0.05061165
109	0x3a3289e8	0.0006810711
110	0x3c2f9db3	0.010718751
111	0xbd8e5405	-0.06949619
112	0xbd73667e	-0.059423916
113	0xbd893b04	-0.067007095
114	0x3cf91ae7	0.030408336
115	0x3d478bc5	0.04871728
116	0x3c8af378	0.016961798
117	0x3cc84bc5	0.024450192
118	0x3d48d800	0.04903412
119	0x3d342d7d	0.043988694
120	0xbc9f705b	-0.019462755
121	0x3b30841d	0.0026934214
122	0x3c9d7131	0.019219013
123	0x3d28e762	0.04123629
124	0x3ca03804	0.01955796
125	0xbd4d7390	-0.050159037
126	0xbd4d087b	-0.050056916
127	0x3d39ccde	0.045361392
128	0x3c9f43ba	0.019441474
129	0x3d8a9e16	0.06768434
130	0xbc51cdc3	-0.012805405
131	0x3d28e24f	0.04123145
132	0xbd67c924	-0.056588307
133	0xbd88b7ce	-0.06675683
134	0xbdb7e2c8	-0.08978802
135	0xbd276a23	-0.040872704
136	0xbd929a6c	-0.0715836
137	0x3da2d102	0.07950021
138	0xbce861c8	-0.028366938
139	0xbc24bb49	-0.010054418
140	0xbd90b880	-0.070664406
141	0x3d0f87a0	0.03504145
142	0xbca2b0a3	-0.019859618
143	0x3d6b7943	0.05748869
144	0x3d93b172	0.072115794
145	0x3d66fce7	0.05639353
146	0x3a526658	0.00080261147
147	0x3d18081d	0.037117112
148	0xbd0e638f	-0.034762915
149	0xbdb84969	-0.08998377
150	0x3aca3e58	0.0015429957
151	0x3d8d317c	0.06894204
152	0x3d1d066b	0.0383362
153	0x3dbb5bbe	0.09148358
154	0x3c543ca4	0.012953911
155	0x3dc0aa2a	0.09407456
156	0xbd594725	-0.053046364
157	0xbdb9123e	-0.090366825
158	0xbc4ea79c	-0.012613203
159	0x3dafe70a	0.08588989
160	0x3a8ce21d	0.0010748539
161	0x3d8ac7f9	0.06776423
162	0xbb8d31e4	-0.004308926
163	0x3c8c3d64	0.017119117
164	0xbb1c8379	-0.0023882075
165	0xbd27043f	-0.040775534
166	0xbcfd1890	-0.030895501
167	0xbd175912	-0.03695018
168	0x3e00fae2	0.12595704
169	0xbc50ceed	-0.012744647
170	0xbb9e7f70	-0.004836969
171	0x3cc84173	0.024445271
172	0x3d9b5dd8	0.07586259
173	0xbdc07dcc	-0.09398994
174	0xbc3bb899	-0.011457586
175	0x3d0b1f56	0.03396543
176	0x3dd92ce9	0.10604269
177	0xbd991eee	-0.074766025
178	0xbc4aa2a8	-0.012367882
179	0xbc50bf83	-0.012740972
180	0x3d4a994e	0.04946261
181	0xbcd670f5	-0.026176909
182	0x3bb16543	0.0054136827
183	0x3d736c28	0.059429318
184	0x3d06347c	0.032764897
185	0xbc9c2d18	-0.019064471
186	0x3d040f49	0.03224114
187	0x3d994804	0.07484439
188	0x3d46bd69	0.04852048
189	0xbda178f4	-0.07884398
190	0xbced5ede	-0.0289759
191	0x3ddc8d17	0.10769098
192	0xbd9600b2	-0.07324351
193	0x3db65f47	0.089048915
194	0xbcc14842	-0.023594026
195	0x3d05a78f	0.0326305
196	0x3d6829d3	0.05668051
197	0x3b6fd1b6	0.0036593503
198	0xbd182a1b	-0.03714953
199	0xbc8de875	-0.017322758
200	0xbd3edf95	-0.046599943
201	0x3d2dd5b0	0.042440116
202	0x3d73413d	0.059388388
203	0x3d9c5c34	0.07634774
204	0x3dbc35d6	0.09189956
205	0x3cb14364	0.02163858
206	0xbcea6bdb	-0.028615883
207	0x3d6ed04e	0.058304124
208	0xbd571fb9	-0.052520487
209	0x3d99f2a9	0.07516987
210	0xbaf55afa	-0.001871913
211	0xbd4186d8	-0.047247738
212	0x3d9fe9d0	0.07808268
213	0xbd8c037e	-0.068366036
214	0x3d33b610	0.0438748
215	0xbd6e4b09	-0.058177028
216	0x3c4581f7	0.012054912
217	0xbd672ae2	-0.05643738
218	0xbca0c8ce	-0.019627001
219	0xbd116e6b	-0.035505693
220	0x3ce1a189	0.027542846
221	0x3c713443	0.014721933
222	0x3bace307	0.005276087
223	0x3cd36539	0.025805103
224	0x3da6d32a	0.08145745
225	0xbdb7187a	-0.089402154
226	0x3d20d671	0.039267007
227	0x3cef20dd	0.029190475
228	0x3bc5a25b	0.006031317
229	0xbd2466d2	-0.04013712
230	0x3d1e8711	0.038703028
231	0x3d44914c	0.04799013
232	0x3cda4bf8	0.026647553
233	0xbdaaff1e	-0.08349441
234	0x3d734d51	0.059399907
235	0x3d677fd0	0.056518376
236	0xbd222212	-0.039583273
237	0xbcf8656e	-0.030321803
238	0x3d89196b	0.06694301
239	0x3cc6fdfe	0.024291035
240	0x3d4def9e	0.050277345
241	0x3c2f95ac	0.010716837
242	0xbce2b413	-0.027673757
243	0x3c99d9a0	0.01878053
244	0xbda3d86d	-0.08000264
245	0xbcea9224	-0.028634138
246	0x3cb77471	0.02239439
247	0xbd24da84	-0.040247455
248	0x3df2795c	0.11839554
249	0x3dc17e51	0.09447921
250	0xbc60f264	-0.013729665
251	0x3c8cc858	0.017185375
252	0xbd85ed7d	-0.06539438
253	0xbd82f2e9	-0.06393988
254	0x3c8a88c0	0.01691091
255	0x3d4ef424	0.0505258

fc1.bias f4 [400]
0	0xbe180597	-0.14845882
1	0xbdb1211e	-0.08648895
2	0x3e01a8b5	0.12662013
3	0xbd1065f0	-0.035253465
4	0x3e5ba0de	0.21448085
5	0xbe450fcd	-0.19244309
6	0xbe478211	-0.1948321
7	0x3db96869	0.09053118
8	0x3de85817	0.11344927
9	0x3d8399f9	0.06425852
10	0x3d849215	0.064731754
11	0x3bd06e7c	0.006360827
12	0xbe22fcd0	-0.15916753
13	0xbcc0d91f	-0.023541031
14	0xbd0ed81e	-0.034874074
15	0xbe9ec508	-0.31009698
16	0xbe79c108	-0.24390042
17	0xbdcbd9c2	-0.099536434
18	0xbd12a8ec	-0.035805628
19	0x3c3fc345	0.011704271
20	0xbdf1b7c0	-0.11802626
21	0xbe6ae6df	-0.22939633
22	0xbe394384	-0.18092161
23	0x3e196410	0.14979577
24	0xbdaa10d1	-0.08303989
25	0xbd6939bc	-0.056939825
26	0xbdb8d4d8	-0.09024972
27	0xbe3c744a	-0.18403736
28	0xbe748074	-0.23877126
29	0xbd6d04c2	-0.057865866
30	0x3e1f8be7	0.15580712
31	0xbe98ccb4	-0.29843676
32	0x3d73f505	0.05955984
33	0xbe1c77cf	-0.15280078
34	0xbd04d089	-0.032425437
35	0x3df3bb1c	0.11900923
36	0xbd861cb0	-0.065484405
37	0x3cce2cf8	0.025167927
38	0xbdf2dcb0	-0.11858499
39	0x3c18b601	0.009320737
40	0xbe374718	-0.17898214
41	0x3dfa93ac	0.122351974
42	0xbd020bfd	-0.031749714
43	0xbcdaac15	-0.026693383
44	0xbdd57cfa	-0.10424228
45	0xbe5906f8	-0.21194065
46	0x3ddd0a8d	0.10793028
47	0xbe1a4653	-0.15065889
48	0x3d3db30b	0.046313327
49	0xbdb396ba	-0.08768983
50	0xbe908316	-0.2822501
51	0xbd1be017	-0.038055506
52	0x3dbb18ee	0.09135614
53	0x3d7a3947	0.06108978
54	0xbdc8399f	-0.09776615
55	0xbdd81c81	-0.10552312
56	0x3d8af8ef	0.067857616
57	0xbe864ba2	-0.26229578
58	0xbd62217e	-0.055207722
59	0xbe19ee31	-0.15032269
60	0x3d27dbde	0.040981166
61	0xbc2c66b5	-0.010522534
62	0x3dd7bac6	0.10533671
63	0xbdb84cd8	-0.08999032
64	0x3e432b8c	0.1905958
65	0xbb47daa4	-0.003049531
66	0x3d6ed0f4	0.058304742
67	0x3e7568df	0.23965786
68	0x3d4bdc67	0.04977074
69	0xbe8161c7	-0.2526991
70	0xbe96c278	-0.29445243
71	0xbd1ed03e	-0.038772814
72	0xbe2f0901	-0.17093278
73	0x3d56b6f2	0.052420564
74	0x3dfb421a	0.12268467
75	0xbe5581f5	-0.20850356
76	0x3db297f3	0.08720388
77	0x3d9cd1b2	0.07657184
78	0x3dd5bd8a	0.10436542
79	0xbe2dc372	-0.16969088
80	0x3be6289b	0.0070238835
81	0xbdec0cb1	-0.11525858
82	0x3e68d885	0.22738846
83	0xbe005cfc	-0.1253547
84	0x3cbacf37	0.022803886
85	0xbd94fe27	-0.07275038
86	0xbd47f2de	-0.0488156
87	0x3c7bb3e2	0.015362712
88	0x3d82957e	0.063761696
89	0xbe226f3f	-0.1586275
90	0xbd20c16d	-0.039246965
91	0xbdb00193	-0.0859405
92	0x3e0c2540	0.13686085
93	0x3c7575a5	0.014981662
94	0xbdc72f11	-0.09725774
95	0x3d46b989	0.048516784
96	0x3df4492d	0.1192802
97	0xbe2c76a6	-0.16842136
98	0x3cc1fc13	0.023679769
99	0xbdbcea05	-0.09224323
100	0xbd1b241e	-0.03787624
101	0x3e08d0ee	0.1336095
102	0xbe36f8d5	-0.1786836
103	0xbe726da0	-0.23674631
104	0xbe4065d0	-0.18788838
105	0xbd024783	-0.03180648
106	0x3ca980df	0.020691333
107	0xbe8daf10	-0.27672625
108	0x3d040f4f	0.032241162
109	0xbd9474f2	-0.07248868
110	0x3e370287	0.17872058
111	0xbe40efd1	-0.18841483
112	0xbe73cee5	-0.23809393
113	0xbe55a6ea	-0.20864454
114	0x3d59f175	0.053208787
115	0x3c71b6a3	0.014753017
116	0x3dd92654	0.10603014
117	0xbda11f38	-0.07867283
118	0xbdc50f8e	-0.096221074
119	0xbdd96858	-0.10615605
120	0xbda418dd	-0.08012555
121	0xbe25ea02	-0.16202548
122	0xbe2f4b6e	-0.17118618
123	0x3e1794d1	0.14802863
124	0xbe3c5e7c	-0.18395418
125	0x3e340e37	0.17583548
126	0xbd9ac67a	-0.07557388
127	0xbe0a34dc	-0.13496727
128	0x3df3974e	0.118940935
129	0xbdade0a2	-0.08490111
130	0xbe95960f	-0.29216048
131	0xbe6f0995	-0.23343499
132	0xbe6c614a	-0.23083988
133	0x3d885ac1	0.06657935
134	0xbe072721	-0.1319852
135	0xbdf84583	-0.12122633
136	0x3cc82280	0.024430513
137	0xbdc1909e	-0.09451412
138	0x3d1280b3	0.03576727
139	0x3e37751e	0.1791577
140	0xbd8a4def	-0.06753146
141	0xbd6cd505	-0.05782034
142	0xbd3374a7	-0.04381242
143	0x3e53a961	0.20670082
144	0xbdbe9009	-0.09304816
145	0xbd140539	-0.036137793
146	0x3dd19adb	0.102346145
147	0x3bfd4f48	0.0077303983
148	0xbd067b47	-0.03283241
149	0x3d2fc2cf	0.042910393
150	0xbe49404c	-0.19653434
151	0xbe67f01a	-0.22650185
152	0x3d62f01d	0.05540477
153	0x3d156b75	0.036479432
154	0xbe57f5f1	-0.21089913
155	0xbcb00503	-0.021486765
156	0xbd8d66c8	-0.069043696
157	0xbd43daf7	-0.047816243
158	0xbcd15dff	-0.025557516
159	0xbcbc325c	-0.022973232
160	0xbd8047b2	-0.06263675
161	0xbdea1697	-0.1143009
162	0xbe81f6ae	-0.25383514
163	0xbe319a27	-0.1734396
164	0x3e4192a0	0.18903589
165	0x3d9b2a0d	0.0757638
166	0xbd780a55	-0.06055673
167	0xbdfa58cd	-0.12223969
168	0xbd839f99	-0.06426925
169	0xbe45b44e	-0.19307062
170	0x3cacb219	0.021081017
171	0x3c31d856	0.010854801
172	0xbde7fadf	-0.11327147
173	0xbdbb8b82	-0.091574684
174	0x3d295670	0.0413422
175	0x3d1e98f2	0.03872008
176	0x3e08b04e	0.13348505
177	0xbd9ed8d5	-0.07756201
178	0x3da02943	0.0782037
179	0xbdf43d27	-0.119257264
180	0x3d51ff75	0.051269013
181	0xbdaca7c7	-0.084304385
182	0x3db56164	0.088564664
183	0xbde50b04	-0.11183742
184	0xbdfdd38a	-0.123938635
185	0x3d874662	0.06605221
186	0xbde24ec4	-0.110501796
187	0x3d848c75	0.064721026
188	0xbe1c9455	-0.15290959
189	0x3daf38a6	0.08555727
190	0xbe2ab333	-0.16669922
191	0xbcb20342	-0.02173007
192	0x3e387c6d	0.18016215
193	0xbe0a16bb	-0.13485233
194	0xbd5f5685	-0.05452587
195	0x3e2fdc75	0.17173941
196	0x3d7363c8	0.05942133
197	0xbda812a4	-0.082066804
198	0xbe16b4a0	-0.1471734
199	0x3d5d1872	0.05397839
200	0x3d9ba019	0.075988956
201	0x3e21749e	0.15767142
202	0xbd7ab07f	-0.061203476
203	0x3dd4b6e0	0.10386443
204	0xbde6c296	-0.11267583
205	0xbd913266	-0.07089691
206	0xbe1bb0e5	-0.15204199
207	0x3dd45e31	0.10369528
208	0x3ddccea3	0.107816
209	0x3def40b2	0.116822615
210	0xbe0bd624	-0.13655907
211	0xbd5714e1	-0.052510146
212	0xbddcb82e	-0.10777317
213	0xbdf8a2d7	-0.12140434
214	0x3cd36559	0.025805162
215	0x3d30356a	0.04301969
216	0x3de73c59	0.11290807
217	0x3c8f8b06	0.017522346
218	0xbe462a77	-0.19352137
219	0xbd9fd70c	-0.07804689
220	0x3d2fb679	0.04289863
221	0xbc87be6b	-0.01657029
222	0xbd87a181	-0.06622601
223	0xbd0b198d	-0.033959914
224	0xbda4a07e	-0.08038424
225	0x3e36ecbc	0.17863744
226	0xbe0d173a	-0.13778391
227	0xbe82b34f	-0.25527427
228	0x3d4d9581	0.050191406
229	0xbe7306d3	-0.23733072
230	0xbc35cdcb	-0.011096428
231	0xbe10d8d1	-0.14145209
232	0x3de77411	0.11301435
233	0x3ddde9c6	0.10835604
234	0xbdef4135	-0.11682359
235	0xbdc9bf45	-0.09850935
236	0xbdaaf2e7	-0.08347111
237	0x3d4b7b35	0.049678046
238	0xbab637db	-0.0013902144
239	0xbdbb5b1b	-0.09148236
240	0xbe309124	-0.17242867
241	0x3d105c38	0.035244197
242	0x3d16582b	0.036705177
243	0x3b892f7f	0.00418657
244	0x3dd04472	0.10169305
245	0x3bc55704	0.006022336
246	0xbe178306	-0.14796075
247	0x3d8130fa	0.0630817
248	0xbcae0ffd	-0.021247858
249	0xbd8e50d3	-0.0694901
250	0xbd00a919	-0.031411264
251	0xbd203dd3	-0.03912146
252	0x3dd64101	0.10461617
253	0xbe474454	-0.19459659
254	0xbe35d3be	-0.17756554
255	0xbe02c5f3	-0.12770824

fc2.weight f4 [300, 400]
0	0x3e411185	0.1885434
1	0xbbeeabf3	-0.0072836815
2	0xbcae769a	-0.021296788
3	0x3d32e2c2	0.043673284
4	0xbd5b995c	-0.05361305
5	0xbc9abf55	-0.018890062
6	0x3d86629d	0.06561778
7	0xbbebd08b	-0.007196491
8	0x3d546590	0.05185467
9	0xbd0469c0	-0.032327414
10	0x3d014954	0.03156407
11	0xbe34efd1	-0.17669608
12	0xbd5eaa03	-0.054361355
13	0x3c940a99	0.01807146
14	0xbdbf9cd0	-0.093560815
15	0xbd0c0aa3	-0.03418983
16	0x3c437d95	0.011931797
17	0xbd5587b4	-0.05213137
18	0x3defaca1	0.11702848
19	0x3d28db68	0.041224867
20	0x3d3b856c	0.045781538
21	0x3c91e3a7	0.017808748
22	0x3cb5b4dc	0.022180967
23	0xbc0b5374	-0.0085037835
24	0xbc21fd87	-0.009887106
25	0x3d0abcb0	0.033871353
26	0xbcdb4962	-0.02676839
27	0x3e370460	0.17872763
28	0xb9a52b6c	-0.00031503604
29	0xbbff091b	-0.007783068
30	0xbd6d7e2b	-0.05798165
31	0x3d52ff74	0.05151315
32	0xbc7ef5fb	-0.015561576
33	0xbde6449f	-0.11243557
34	0xbc5d61bf	-0.013512074
35	0xbdfebb22	-0.124380365
36	0x3d5a9cea	0.0533723
37	0xbd724337	-0.059146132
38	0x3dd9a0d3	0.10626378
39	0x3db890e2	0.09012009
40	0xbd853fc9	-0.06506307
41	0x3cf87fb1	0.030334326
42	0xbd96ea19	-0.07368869
43	0x3c6f729d	0.014614728
44	0x3d288fc9	0.04115275
45	0xbdc25b85	-0.09490112
46	0xbd09edb7	-0.03367397
47	0x3d11ec30	0.035625637
48	0x3d9d3de4	0.0767782
49	0xbd3971d4	-0.04527457
50	0xbcabf8c0	-0.020992637
51	0xbd38fc0a	-0.04516224
52	0xbc809aa6	-0.015698742
53	0x3d1ce53a	0.038304545
54	0x3cbc8731	0.023013683
55	0xbcaaf950	-0.020870835
56	0x3e4ece9b	0.20196001
57	0x3c19b415	0.009381314
58	0xbd55841e	-0.05212795
59	0xbdac0076	-0.083985254
60	0x3d01b4a0	0.031666398
61	0xbd7b597e	-0.061364643
62	0x3d0f8f4c	0.035048768
63	0xbcc91795	-0.024547378
64	0x3d015a62	0.031580336
65	0xbbeddb07	-0.007258776
66	0xbd5c8311	-0.053835932
67	0x3d994785	0.074843444
68	0xbd50d4dd	-0.050984252
69	0xbdb1d57d	-0.08683298
70	0xbd090c5d	-0.033459056
71	0x3d947a0a	0.072498396
72	0xbd2fbe61	-0.04290617
73	0x3cf11450	0.029428631
74	0xbe114216	-0.14185366
75	0x3c8fa58e	0.017534997
76	0xbe242ec2	-0.16033462
77	0xbd1e2ab7	-0.038614955
78	0x3d209293	0.039202284
79	0x3dcfda4a	0.10149057
80	0xbe075ac5	-0.1321822
81	0x3d492684	0.049108997
82	0x3d0df905	0.03466131
83	0xbae83e2e	-0.0017718726
84	0x3d9c0403	0.07617953
85	0xbcfed2b0	-0.031106323
86	0x3dc155e6	0.09440212
87	0xb9dbd24c	-0.00041927618
88	0x3ce71c87	0.028211845
89	0xbcbcc2b3	-0.023042059
90	0x3d8895fd	0.06669233
91	0xbd1a66b6	-0.03769561
92	0xbc736414	-0.014855403
93	0x3d172c05	0.036907215
94	0x3d2e5e21	0.042570237
95	0x3b0e96d9	0.0021757393
96	0x3de9e8e2	0.11421372
97	0xbcc9c525	-0.024630139
98	0xbd68e149	-0.056855474
99	0xb906f5d5	-0.00012870815
100	0xbd2ef9e7	-0.042718794
101	0x3c6c9b4c	0.014441323
102	0x3c75628a	0.014977107
103	0x3de22d2a	0.110437706
104	0x3bfb309b	0.0076657063
105	0xbcf92592	-0.030413423
106	0x3cbd7050	0.023124844
107	0x3d1ffd4a	0.039059915
108	0x3c5c83a6	0.013459122
109	0xbc93fa63	-0.01806373
110	0x3d405630	0.046957195
111	0xbcc73378	-0.024316534
112	0xbd5f483f	-0.05451226
113	0x3ca01d18	0.019545123
114	0xbd991066	-0.07473831
115	0xbd98bfc6	-0.07458453
116	0x3c9387a3	0.018009013
117	0x3cfab370	0.03060314
118	0x3d3bb46a	0.045826353
119	0xbcc3066d	-0.023806775
120	0xbd849bcc	-0.064750284
121	0x3c4933d2	0.012280421
122	0xbbc30ebe	-0.005952685
123	0x3d66b46e	0.056324415
124	0x3e283934	0.16428071
125	0x3d49a9b0	0.049234092
126	0x3d220322	0.03955377
127	0xbd59e159	-0.053193424
128	0x3d2a0f47	0.041518476
129	0x3da6fe29	0.08153946
130	0xbd31ec37	-0.043438163
131	0x3d36a7a1	0.044593457
132	0x3dcc3135	0.09970323
133	0x3cfd5bf1	0.03092763
134	0xbd49d9ef	-0.049280103
135	0xbba07af3	-0.004897469
136	0xbd4ce7ef	-0.050025877
137	0xbd03859b	-0.032109838
138	0x3ba17d86	0.0049282936
139	0xbaa6e0c5	-0.0012731781
140	0xbdc6789a	-0.09690972
141	0x3c551d53	0.01300748
142	0xbd6cb2d5	-0.057787735
143	0x3da446bd	0.08021305
144	0xbe194a77	-0.14969812
145	0x3ce608a2	0.028080288
146	0x3c46c651	0.012132243
147	0xbdf101cf	-0.11767923
148	0xbc4c4e51	-0.012469844
149	0x3d89ef81	0.06735135
150	0x3d145e72	0.036222883
151	0x3d7b1cc0	0.061306715
152	0xbda118a7	-0.0786603
153	0xba6f31f4	-0.000912457
154	0x3d54f0f1	0.051987592
155	0xbd0c7287	-0.03428891
156	0xbde1aa55	-0.110188164
157	0xbc5e836b	-0.013581137
158	0x3c8d28f7	0.017231448
159	0x3cd39038	0.025825605
160	0xbd1cb052	-0.03825409
161	0xbd3332ae	-0.043749504
162	0x3de1e93c	0.11030814
163	0x3c529e03	0.012855056
164	0xbd396d28	-0.045270115
165	0x3d7c74c7	0.061634805
166	0x3d4f2902	0.050576217
167	0x3cd7ef20	0.02635914
168	0xbcd314d7	-0.025766773
169	0xbd2703ea	-0.040775217
170	0xbd636ade	-0.05552184
171	0xbd0c4522	-0.034245618
172	0xbd2060db	-0.03915487
173	0x3e831a2e	0.2560591
174	0x3cb6e1d6	0.022324484
175	0x3b018914	0.0019765543
176	0xbdd95d04	-0.106134444
177	0xbd783a67	-0.06060257
178	0x3cc11f49	0.023574488
179	0xbd761e30	-0.060087383
180	0xbd2f8ba3	-0.042857777
181	0xbd285a6c	-0.041101858
182	0x3d16ba28	0.036798626
183	0xbd389600	-0.045064926
184	0x3d9d582c	0.07682833
185	0x3cd58644	0.026065
186	0xbc7f777c	-0.015592452
187	0x3c8f4d60	0.01749295
188	0xbb5809f9	-0.0032964929
189	0x3bb1151b	0.0054041273
190	0xbd08a6f0	-0.03336233
191	0xbd96ac9d	-0.07357142
192	0xbd0e7dc8	-0.034787923
193	0xbd0f72a9	-0.035021458
194	0xbcf7be32	-0.03024206
195	0xbd123b43	-0.035701048
196	0xbd999ce5	-0.075006284
197	0x3cf04167	0.029328061
198	0x3d4772b8	0.04869339
199	0xbd3c892d	-0.04602926
200	0x3ceadf3e	0.028670903
201	0xbd21c689	-0.03949598
202	0x3d156f5e	0.03648316
203	0xbb8e21d6	-0.0043375297
204	0xbd8fd2fa	-0.070226625
205	0xbba9c2e7	-0.005180705
206	0x3c1b5e9e	0.009483008
207	0x3cee662d	0.029101456
208	0x3d5274d0	0.051380932
209	0xbd49bbef	-0.049251493
210	0xbd0f342f	-0.034961876
211	0x3da8d792	0.08244242
212	0xbe7e4675	-0.24831565
213	0xbcbd22b2	-0.023087833
214	0xbd612c0d	-0.05497365
215	0xbdc01a6c	-0.093800396
216	0x3cafad3f	0.021444915
217	0x3c99b570	0.018763274
218	0xbcf10534	-0.029421426
219	0xbda88b4c	-0.08229694
220	0xbc782993	-0.015146631
221	0xbe1820a6	-0.14856204
222	0xbde4ca29	-0.111713715
223	0xbce22edb	-0.027610233
224	0xbe177df9	-0.14794149
225	0x3d9a0396	0.07520215
226	0xbced2d29	-0.028952198
227	0x3d32ee11	0.04368407
228	0xbdbf51d9	-0.09341783
229	0xbb05e703	-0.0020431883
230	0x3d836606	0.06415944
231	0xbc4d0a24	-0.012514625
232	0xbd31e808	-0.043434173
233	0x3cf07223	0.0293513
234	0xbbf37831	-0.0074300994
235	0x3b92a81c	0.0044756066
236	0xbd8de7d4	-0.06928983
237	0x3d923d6e	0.07140623
238	0xbd94fcb2	-0.0727476
239	0xbd93456e	-0.07190977
240	0xbdec9078	-0.11550993
241	0x3c934eff	0.017982004
242	0x3bcfadba	0.0063378485
243	0xbc0949eb	-0.00837944
244	0xbd341575	-0.043965776
245	0xbdf0800f	-0.11743175
246	0x3d5bb70e	0.05364137
247	0xbc1dcb9d	-0.009631065
248	0x3da25cd2	0.0792786
249	0xbe2c0dad	-0.16802092
250	0xbd29f9cf	-0.041498
251	0xbdc166f0	-0.09443462
252	0xbdbb1d5c	-0.09136459
253	0xbcb253c5	-0.02176846
254	0xbc08a114	-0.008339185
255	0xbbf87f48	-0.0075835325

fc2.bias f4 [300]
0	0x3d5a213c	0.05325435
1	0x3d996e38	0.07491726
2	0xbd1f719a	-0.0389267
3	0x3c9a88c3	0.018864041
4	0x3c9dcca6	0.019262623
5	0x3d3e1e6f	0.046415742
6	0x3d60abab	0.054851215
7	0x3cb62a17	0.022236867
8	0x3c9a3bcf	0.018827347
9	0x3d4432b9	0.047899935
10	0x3db46795	0.08808819
11	0x3cb3530e	0.02189019
12	0xbc7cfc0c	-0.015440952
13	0x3c97eb9e	0.018544968
14	0x3c43bae3	0.011946413
15	0x3c61ec49	0.013789245
16	0xbba49442	-0.0050225565
17	0x3d80cc32	0.06288947
18	0x3d1bf046	0.03807094
19	0x3d782092	0.060577936
20	0x3d672b34	0.056437686
21	0x3c1e64b1	0.009667561
22	0x3d846276	0.064640924
23	0x3d99c7f5	0.07508842
24	0x3dd8559d	0.105632044
25	0x3dab37c4	0.08360246
26	0x3cb442b5	0.022004465
27	0x3ca7f413	0.020502126
28	0x3dc759c4	0.09733918
29	0xbc79937d	-0.015232918
30	0x3c6d9d9b	0.014502908
31	0xbcc478a9	-0.023983316
32	0x3d07956f	0.033101495
33	0x3d849e78	0.06475538
34	0x3d5df677	0.054190125
35	0x3c8c2e9c	0.017112069
36	0x3d63e632	0.055639453
37	0x3dc6d7f5	0.09709159
38	0x3da5696f	0.080767505
39	0x3c98263f	0.018572925
40	0xbb936320	-0.0044979006
41	0xbd6b0bd0	-0.057384312
42	0x3d6785a3	0.05652393
43	0x3db30552	0.08741249
44	0x3dbe8605	0.09302906
45	0x3dc23856	0.094834015
46	0x3dafde28	0.08587295
47	0x3be3f56f	0.006956748
48	0xbd93cadc	-0.07216427
49	0x3d9ed732	0.07755889
50	0xbd0b9dc0	-0.03408599
51	0x3dbb2c33	0.0913929
52	0x3d9efb2d	0.07762752
53	0x3ac7c9db	0.0015242653
54	0x3d9b13b8	0.075721204
55	0x3c2c6c3d	0.010523853
56	0x3d0a1c94	0.03371866
57	0x3d98b3be	0.07456158
58	0x3d4e0417	0.05029687
59	0x3cb5f319	0.022210645
60	0x3bd39726	0.0064572273
61	0x3c1bd001	0.009510041
62	0x3d718279	0.05896232
63	0x3c97d809	0.01853563
64	0xbc042665	-0.008065795
65	0x3bff1018	0.007783901
66	0xbce5ccaa	-0.028051693
67	0x3d1637f7	0.036674466
68	0x3cc253dc	0.023721628
69	0x3d36c0ea	0.04461757
70	0x3d5ee77a	0.054419972
71	0x3d837e8a	0.0642062
72	0x3dd0aaa3	0.10188796
73	0x3d8350e6	0.064119145
74	0x3d983659	0.07432241
75	0xba27b5b0	-0.0006397618
76	0x3dc3c0d5	0.09558264
77	0xbcd52e8e	-0.026023176
78	0xbd094a4d	-0.033518124
79	0x3dfff75e	0.124983534
80	0x3d7412f0	0.059588373
81	0x3dee7088	0.116425574
82	0x3bff8a10	0.0077984408
83	0x3c4fecc4	0.012690727
84	0x3bcd2882	0.0062609324
85	0x3dc9f23b	0.09860655
86	0x3d0fbf93	0.03509481
87	0x3be739de	0.007056459
88	0x3cc740cb	0.024322888
89	0xbd552737	-0.05203935
90	0x3d3de9eb	0.04636566
91	0xbcdcf98d	-0.026974464
92	0x3e1cfae3	0.1533008
93	0x3d8e9b2a	0.06963189
94	0x3d69c3e9	0.0570716
95	0x3d966317	0.07343119
96	0xbda9c220	-0.082889795
97	0x3c9bb4ea	0.019007165
98	0xbd665665	-0.056234736
99	0x3cb775cf	0.022395043
100	0x3d961f16	0.07330148
101	0x3e1bd2ef	0.15217184
102	0x3dca4cd5	0.09877936
103	0x3cddf898	0.027096078
104	0xbd63f367	-0.05565205
105	0x3cef1ced	0.029188598
106	0x3d1be1d6	0.03805717
107	0xbd768f32	-0.060195155
108	0x3d86f9ca	0.06590612
109	0x3c3ef6f0	0.011655554
110	0x3c80f91b	0.015743783
111	0x3d0f9f96	0.035064302
112	0x3b303088	0.0026884396
113	0xbd720520	-0.05908692
114	0x3d8351c2	0.064120784
115	0xbd9ab46b	-0.07553943
116	0x39a4d077	0.00031435836
117	0x3d8c0467	0.06836777
118	0x3d42815d	0.04748665
119	0x3cfc4e6a	0.03079911
120	0x3c8f91dd	0.017525608
121	0x3d20c8e8	0.0392541
122	0xbd0ef888	-0.034904987
123	0x3db6e506	0.089304015
124	0x3d84fae3	0.06493165
125	0x3dbdfd3e	0.09276818
126	0x3c710b2e	0.014712138
127	0x3c55d258	0.013050638
128	0x3dbf3e32	0.09338035
129	0x3bf96f86	0.0076121716
130	0x3ce18a2d	0.027531708
131	0x3dc4c854	0.09608522
132	0x3dfaa3c7	0.12238269
133	0x3cb50bcf	0.022100357
134	0x3dd3b543	0.10337307
135	0x3d895677	0.06705945
136	0x3d202a6c	0.039102957
137	0x3dac9480	0.084267616
138	0x3cf72ca4	0.030172653
139	0x3b7c9a4b	0.0038544114
140	0x3cc2f074	0.023796298
141	0x3d09fac1	0.033686403
142	0x3c848a23	0.01617915
143	0x3d51469a	0.05109272
144	0x3dff87d1	0.12477077
145	0x3d8fcb63	0.07021215
146	0x3c814694	0.015780725
147	0x3d97beda	0.07409449
148	0x3d68016e	0.05664199
149	0x3da6d295	0.08145634
150	0x3d059080	0.03260851
151	0x3d97f738	0.074202
152	0x3d9ed331	0.07755125
153	0xbca4e178	-0.020127043
154	0x3db9f849	0.0908056
155	0x3bbb2643	0.0057113483
156	0x3d27283e	0.040809862
157	0x3d236da8	0.0398995
158	0x3d8588d4	0.065202385
159	0xbd7f2850	-0.062294304
160	0x3c4f4ddb	0.0126528395
161	0x3dda06a4	0.10645798
162	0x3d86c20f	0.065799825
163	0x3ce9d243	0.028542643
164	0x3c25e1a2	0.010124596
165	0xbc2b32ba	-0.010449106
166	0x3d3aac0d	0.045574237
167	0x3cdb802b	0.026794514
168	0xbc903386	-0.017602693
169	0xbcfccdab	-0.030859789
170	0x3d7b86a5	0.061407704
171	0x3d213624	0.039358273
172	0x3d4f21a9	0.05056921
173	0x3cf848df	0.030308185
174	0x3c09c29b	0.008408214
175	0x3b8b0ca3	0.00424345
176	0x3d138675	0.0360169
177	0x3cd64f19	0.026160764
178	0x3d6d6324	0.057955876
179	0xba8732db	-0.0010314839
180	0x3d460e1b	0.048353296
181	0x3dd43933	0.103624724
182	0x3d93c076	0.072144434
183	0x3d97f549	0.07419831
184	0xbcc2c3e3	-0.023775047
185	0xbbff5825	-0.00779249
186	0x3d10b3ba	0.03532765
187	0xbbb49583	-0.0055109872
188	0x3de643ac	0.11243376
189	0x3d69f387	0.05711701
190	0x3d8741f6	0.06604378
191	0x3d25cd19	0.0404788
192	0x3d900315	0.07031838
193	0xbc95b298	-0.018273637
194	0x3db03601	0.086040504
195	0x3dd10383	0.10205748
196	0x3d2c0711	0.041998927
197	0x3d7fd333	0.062457275
198	0xbc85ac47	-0.0163175
199	0x3d4deb4a	0.050273217
200	0xbd05e4de	-0.032688968
201	0xbda00afc	-0.07814595
202	0x3cdcf0c9	0.026970284
203	0x3d405929	0.04696003
204	0x3d52e56f	0.051488336
205	0x3d698669	0.05701295
206	0x3d47787c	0.048698887
207	0x3d01cbd9	0.031688545
208	0x3c9a98b2	0.018871639
209	0x3d885fb7	0.06658881
210	0x3d2e23e8	0.04251471
211	0xbc11cf6a	-0.008899549
212	0x3da77a57	0.08177631
213	0x3cf3a25b	0.029740503
214	0x3cd9b012	0.026573215
215	0x3ca9fab9	0.020749437
216	0x3da757ba	0.081710294
217	0x3d39d319	0.045367334
218	0x3dacea2d	0.08443103
219	0xbb412a24	-0.002947458
220	0x3d593ce1	0.053036574
221	0x3d877eff	0.066160195
222	0x3dfc1a9a	0.12309761
223	0xbc57a10a	-0.013160953
224	0xba6a168f	-0.0008929753
225	0xbdc4bbe6	-0.09606151
226	0x3dfeab7d	0.124350525
227	0x3dbf5f45	0.09344343
228	0x3cdec5bb	0.027193895
229	0x3d1115a5	0.035421032
230	0x3de8a3dc	0.11359379
231	0x3cc1d40e	0.023660686
232	0x3d8041fd	0.06262586
233	0x3df3978d	0.118941404
234	0x3d11cb79	0.035594437
235	0x3bf7bb5b	0.0075601763
236	0xbc01d61b	-0.007924582
237	0xbda149aa	-0.078753784
238	0xba7068a8	-0.00091708684
239	0x3dd2ef4d	0.10299549
240	0xbccf2253	-0.025284922
241	0xbd2742aa	-0.04083506
242	0x3d6d5de6	0.057950877
243	0x3d24b126	0.040208004
244	0x3d17a908	0.037026435
245	0x3dac3a26	0.084095284
246	0x3d9151b3	0.07095661
247	0x3d8a1bbb	0.067435704
248	0x3d69518b	0.05696253
249	0x3db989f1	0.09059513
250	0x3da644a4	0.08118561
251	0x3da85015	0.082183994
252	0x3e00a2c1	0.12562086
253	0x3dca896c	0.098894924
254	0x3c40aac9	0.011759468
255	0x3d5f9d4c	0.05459337

fc3.weight f4 [2, 300]
0	0xbcb82f6a	-0.022483546
1	0x3d665bc5	0.056239862
2	0x3e13efe8	0.14446986
3	0x3e83e4b5	0.25760427
4	0xbe46e826	-0.19424495
5	0x3e43062a	0.1904532
6	0x3e75c746	0.24001798
7	0xbe07c6cb	-0.13259427
8	0xbe52a34d	-0.20570107
9	0x3d634cd3	0.055493187
10	0xbe2e2c96	-0.17009196
11	0x3e7806ca	0.2422134
12	0xba3fca42	-0.00073162105
13	0xbe14063e	-0.14455506
14	0xbe4242fa	-0.18970862
15	0x3eab44d5	0.33450952
16	0xbcabfb73	-0.020993924
17	0xbdf11532	-0.11771621
18	0xbe06a714	-0.13149673
19	0xbd8d3d65	-0.06896476
20	0xbc5b29a6	-0.013376629
21	0xbda201d4	-0.07910505
22	0xbe422d0c	-0.18962497
23	0xbd83af0c	-0.06429872
24	0xbe3393d8	-0.17536867
25	0x3d281e68	0.041044623
26	0x3ce27bf6	0.027647
27	0xbe23f02c	-0.16009587
28	0xbd8761ad	-0.06610427
29	0x3e20c4a6	0.15700015
30	0xbd9cc8fb	-0.076555215
31	0x3e0fc1c9	0.14038767
32	0x3e4e8735	0.20168765
33	0x3d145d59	0.036221836
34	0xbde9fbd7	-0.11424988
35	0xbe885f8f	-0.26635405
36	0x3e31e379	0.1737193
37	0xbb3cafd0	-0.0028791316
38	0x3e5e1ec2	0.2169142
39	0xbe17b3d0	-0.14814687
40	0x3eaa6e8e	0.33287472
41	0x3dd2432c	0.10266718
42	0x3e3653fe	0.17805478
43	0xbe1cc596	-0.15309748
44	0xbdf19d82	-0.1179762
45	0xbe0bca61	-0.1365142
46	0xbe357765	-0.17721327
47	0xbe0b2904	-0.13589865
48	0xbe6b07bd	-0.2295217
49	0x3d63cdac	0.055616066
50	0xbe0039d8	-0.12522066
51	0xbe02cd49	-0.12773623
52	0x3d68e201	0.05685616
53	0x3d980a68	0.0742386
54	0x3e35c58e	0.17751142
55	0x3d91a445	0.0711141
56	0xbd8ed69f	-0.069745295
57	0x3c80d6b9	0.015727388
58	0x3da3842f	0.079841964
59	0x3e5a4111	0.21313883
60	0xbe1fdb2e	-0.15610954
61	0xbdb0c147	-0.08630615
62	0xbdecde74	-0.11565867
63	0x3d6fb4ac	0.05852191
64	0xbdfdac6e	-0.12386404
65	0x3d8e4ad4	0.06947866
66	0x3e5e6d7d	0.21721454
67	0x3e037052	0.12835816
68	0x3e34deb6	0.17663082
69	0x3d11be9f	0.03558218
70	0xbe038abf	-0.12845896
71	0xbe0ff37a	-0.14057723
72	0xbd9716e6	-0.073774144
73	0x3df344df	0.118783705
74	0xbe7c7b5d	-0.24656434
75	0x3d1584d5	0.03650363
76	0xbe3d169f	-0.1846566
77	0xbe0d764d	-0.1381466
78	0x3db404aa	0.08789952
79	0x3dc442a5	0.09583024
80	0x3dd4c6ba	0.103894666
81	0x3e2d5724	0.16927773
82	0xbdcc68e1	-0.099809416
83	0x3d86a658	0.06574696
84	0xbe214bce	-0.15751573
85	0x3dbf12b3	0.093297385
86	0xbe020d32	-0.12700346
87	0x3d2bd66b	0.04195253
88	0x3e613bbe	0.21995446
89	0x3df1f354	0.11813989
90	0xbdd88cfd	-0.105737664
91	0x3e406227	0.18787442
92	0xbdabb91b	-0.083849154
93	0xbe3f7c4c	-0.18699759
94	0x3d893fe5	0.0670164
95	0x3ea553c3	0.32290468
96	0x3e7132f6	0.23554596
97	0xbd9c9aae	-0.0764669
98	0x3e364478	0.17799556
99	0x3e753090	0.23944306
100	0x3b2d7e9c	0.002647317
101	0xbea063b2	-0.3132606
102	0x3dbd7903	0.09251597
103	0xbe380454	-0.17970401
104	0x3d1a7981	0.03771353
105	0x3d1c5e98	0.03817615
106	0x3dd64861	0.10463024
107	0x3e527a0c	0.2055437
108	0xbcc034be	-0.02346265
109	0x3c971823	0.018444126
110	0xbdc4f70b	-0.09617432
111	0x3d17563d	0.036947478
112	0xbdc7f5e9	-0.097637005
113	0x3d858874	0.06520167
114	0x3e04c2a9	0.12964882
115	0xbe7f08f8	-0.24905765
116	0x3dfb8c98	0.122826755
117	0x3dac0fc0	0.084014416
118	0x3d518eb4	0.051161483
119	0xbdfa2b9b	-0.12215348
120	0x3dfb94a7	0.122842126
121	0xbe676329	-0.2259642
122	0xbdcaa7ea	-0.09895308
123	0x3ede696c	0.43439806
124	0xbd514d41	-0.051099066
125	0x3dfdd0d2	0.12393345
126	0x3db4f0ff	0.08835029
127	0x3e40fd3a	0.18846598
128	0xbe37d1a8	-0.17951071
129	0x3e260df1	0.16216256
130	0x3e018154	0.12646991
131	0xbe8501f0	-0.2597804
132	0x3e8dcb7c	0.2769431
133	0x3cbee6eb	0.02330347
134	0x3bba0aaf	0.005677543
135	0xbe0fd15a	-0.14044705
136	0xbdb18100	-0.08667183
137	0xbe2f3926	-0.17111644
138	0x3e830e70	0.25596952
139	0x3e07e3b7	0.1327046
140	0x3d1c9c1d	0.03823482
141	0x3d1ea599	0.038732145
142	0x3e2c3f17	0.16820942
143	0x3d17bbbc	0.03704427
144	0xbdc1f9b1	-0.09471453
145	0x3d947ed6	0.072507545
146	0x3de55d65	0.11199454
147	0x3e8e623c	0.27809322
148	0x3d3d4df8	0.046216935
149	0xbe4359bc	-0.190772
150	0xbe3434c9	-0.17598261
151	0x3ea9d529	0.3317044
152	0x3db87c01	0.09008027
153	0x3e6fd663	0.23421626
154	0xbe169332	-0.14704588
155	0x3d737fc6	0.059448026
156	0xbe21384b	-0.1574413
157	0x3de09552	0.109659806
158	0xbdfb2ff5	-0.122650065
159	0xbdb11380	-0.086462975
160	0xbd594808	-0.05304721
161	0x3ce591a6	0.028023552
162	0x3d638ea9	0.055555973
163	0x3ca51cb8	0.020155296
164	0x3d98eb3a	0.07466741
165	0x3e0def39	0.13860787
166	0xbe1a9832	-0.1509712
167	0x3d8f9375	0.07010547
168	0x3e58e10d	0.211796
169	0x3e87564a	0.2643302
170	0x3e6668ae	0.2250087
171	0xbe105fbf	-0.14099024
172	0xbc7214c5	-0.01477546
173	0x3d27bfc5	0.04095437
174	0x3d937bd1	0.072013505
175	0x3e0a35d8	0.13497102
176	0x3d47b37a	0.048755147
177	0xbe1395ff	-0.14412688
178	0xbdefd090	-0.11709702
179	0xbd4ac597	-0.049504843
180	0x3e080fb8	0.13287246
181	0xbe058c6d	-0.1304185
182	0xbd8f4691	-0.06995881
183	0x3dfecf0d	0.124418356
184	0x3d789b41	0.060694937
185	0x3d8a8921	0.067644365
186	0xbe54fa88	-0.20798695
187	0xbde8fc7f	-0.11376285
188	0xbd460a68	-0.048349768
189	0x3dae6e0f	0.08517086
190	0x3ccdcc4a	0.025121827
191	0xbda7f994	-0.082019
192	0x3ec20451	0.37893918
193	0xbd0cfc97	-0.034420576
194	0x3e91f224	0.2850505
195	0xbc6b1f48	-0.01435072
196	0x3bc1e72c	0.0059174504
197	0xbd5c509c	-0.053787813
198	0x3c2b8be3	0.010470363
199	0x3e23b6f4	0.1598776
200	0x3e2111f4	0.15729505
201	0x3d942fc7	0.07235675
202	0x3e877031	0.26452783
203	0xbe5cf401	-0.21577455
204	0x3d993d70	0.074824214
205	0x3deaf31d	0.114721514
206	0xbe5f6ac6	-0.21818075
207	0x3c30e7bf	0.01079744
208	0x3e467c51	0.1938336
209	0x3e22800e	0.15869161
210	0x3e609166	0.21930465
211	0x3ec738b5	0.38910452
212	0x3e414180	0.18872643
213	0x3de92775	0.11384479
214	0xbdb32f57	-0.08749264
215	0xbd2700da	-0.040772296
216	0xbe31417e	-0.1731014
217	0x3e178fc9	0.14800943
218	0xbdb7570c	-0.0895215
219	0x3cb2c3fa	0.021821965
220	0xbdc76140	-0.09735346
221	0xbe9ce507	-0.30643484
222	0xbe283b01	-0.16428758
223	0x3d61a548	0.055089265
224	0x3e43d441	0.19123937
225	0xbcc63eb5	-0.024199823
226	0x3cd9ff91	0.026611121
227	0xbdd6f75d	-0.104963996
228	0x3b4f1563	0.003159844
229	0x3cb16924	0.02165658
230	0xbe3c1cf1	-0.18370415
231	0xbde7b0a0	-0.113129854
232	0x3e92d0f0	0.28675032
233	0xbde69352	-0.11258568
234	0xbd9278be	-0.07151936
235	0x3d2e2337	0.042514052
236	0x3dda070f	0.106458776
237	0x3d2a0888	0.041512042
238	0x3ec63e05	0.38719192
239	0x3d88ca6d	0.06679235
240	0x3e042360	0.1290412
241	0x3d994433	0.07483711
242	0x3e7af0a8	0.24505866
243	0xbe16699b	-0.14688723
244	0x3e530fc6	0.20611486
245	0x3e4deba6	0.20109424
246	0xbe25bb6a	-0.16184774
247	0xbcbca9b1	-0.023030134
248	0x3c32ba3d	0.0109086605
249	0xbe0e2482	-0.13881114
250	0xbdf04769	-0.117323704
251	0xbdb6a250	-0.089176774
252	0xba290e8e	-0.0006449007
253	0x3d4f668b	0.050634902
254	0x3ceee4d5	0.02916185
255	0xbe1f3a04	-0.15549475

fc3.bias f4 [2]
0	0x3d1b7737	0.03795549
1	0xbcb51ce0	-0.022108495

bn1.weight f4 [400]
0	0x3efcfa64	0.49409783
1	0x3e9c7d8a	0.3056453
2	0x3f3fad37	0.7487368
3	0x3f55e8a0	0.8355808
4	0x3f39f00c	0.7263191
5	0x3ec328bb	0.38117012
6	0x3f341083	0.70337695
7	0x3f86fae9	1.0545322
8	0x3ec233d6	0.37930173
9	0x3d90eca4	0.070763856
10	0x3f49969b	0.7874543
11	0x3ed93f48	0.42431092
12	0x3ef6a624	0.4817363
13	0x3e73a424	0.23793083
14	0x3f21deb4	0.63230443
15	0x3eee9799	0.46600035
16	0x3f7e1d8a	0.99263823
17	0x3f12e597	0.57381576
18	0x3f88017f	1.0625457
19	0x3e91f94d	0.28510514
20	0x3f5dc774	0.86632466
21	0x3e4df649	0.20113482
22	0x3f6bcac9	0.921063
23	0x3f4b46c8	0.7940488
24	0x3e57a272	0.21058062
25	0x3f67bc5c	0.9052179
26	0x3d5dfa36	0.054193698
27	0x3edea9ee	0.4348902
28	0x3e254c6b	0.16142432
29	0x3ede8508	0.4346087
30	0x3ed0ce0f	0.4078221
31	0x3f83196d	1.0242134
32	0x3f3eff35	0.74608165
33	0x3f75d86d	0.96033365
34	0x3f228a20	0.6349201
35	0x3f3c8ec6	0.73655355
36	0x3ee8b118	0.45447612
37	0x3e88e3e0	0.26736355
38	0x3e4ca8af	0.19986223
39	0x3e87affd	0.26501456
40	0x3f638244	0.88870645
41	0x3f1e19ed	0.6175831
42	0x3ea12768	0.31475377
43	0x3f6e51d7	0.9309363
44	0x3f6363b7	0.8882403
45	0x3edec922	0.43512827
46	0x3f85e68a	1.046098
47	0x3f358624	0.7090781
48	0x3e983f50	0.29735804
49	0x3f272fba	0.653072
50	0x3eb6e356	0.3572032
51	0x3ee8ecbd	0.45493117
52	0x3ea7a5b2	0.32743603
53	0x3f7baff7	0.98315376
54	0x3f7bb236	0.98318803
55	0x3f5d80db	0.8652474
56	0x3f40501d	0.75122243
57	0x3e7821b4	0.24231607
58	0x3e874d70	0.26426268
59	0x3f3874c5	0.72053176
60	0x3f8933d5	1.0718943
61	0x3f7f3ccc	0.99702144
62	0x3ec394f0	0.38199568
63	0x3f3eac59	0.7448173
64	0x3e7af3d3	0.24507074
65	0x3ecebdfe	0.40379328
66	0x3efaded4	0.4899813
67	0x3e28f6d9	0.16500415
68	0x3f3e2950	0.7428179
69	0x3f787f9c	0.97069716
70	0x3eb8058f	0.3594174
71	0x3f114301	0.56742865
72	0x3f0e12e7	0.5549759
73	0x3ec4bf7f	0.3842735
74	0x3f5be419	0.85894924
75	0x3f88aebb	1.0678324
76	0x3f32e887	0.6988606
77	0x3f789d0e	0.97114646
78	0x3ebf530b	0.37368044
79	0x3f025eec	0.5092609
80	0x3eb19359	0.3468273
81	0x3f1ea45f	0.6196956
82	0x3f2564dc	0.64607024
83	0x3f2cabb7	0.67449516
84	0x3e9a4f36	0.30138558
85	0x3f09924c	0.53738856
86	0x3f76fbd8	0.96478033
87	0x3f4c6bbe	0.798519
88	0x3f01e383	0.5073778
89	0x3ed23427	0.41055414
90	0x3f860cea	1.0472691
91	0x3ee415b6	0.44547814
92	0x3f4cf5a6	0.8006233
93	0x3f772095	0.9653409
94	0x3ef30809	0.47467068
95	0x3f020852	0.50793946
96	0x3ea01549	0.3126624
97	0x3eac8d30	0.33701468
98	0x3f815b09	1.0105907
99	0x3e62d1c3	0.2215033
100	0x3f1dc28c	0.6162498
101	0x3f020e1a	0.5080277
102	0x3f554800	0.8331299
103	0x3eafd7f8	0.3434446
104	0x3f154fe0	0.58325005
105	0x3eed3c99	0.46335295
106	0x3e8b44e7	0.27201006
107	0x3f7282d1	0.9473086
108	0x3f4eae2f	0.80734533
109	0x3f47fe51	0.7812243
110	0x3f60f3b5	0.8787187
111	0x3e8dec68	0.27719426
112	0x3eda365a	0.42619592
113	0x3f2c7004	0.6735842
114	0x3e803341	0.25039104
115	0x3f6a8e53	0.9162342
116	0x3ea17ee8	0.31542134
117	0x3f4a0fc6	0.7893032
118	0x3e5d7a12	0.21628597
119	0x3f6fc49d	0.93659383
120	0x3f82d99b	1.0222658
121	0x3f4d26e7	0.80137485
122	0x3eeb8650	0.4600091
123	0x3f77c3f6	0.9678339
124	0x3ed0b8e1	0.4076605
125	0x3f915cdf	1.1356467
126	0x3ee23833	0.44183502
127	0x3f8c0697	1.0939511
128	0x3f3cd707	0.73765606
129	0x3e978333	0.29592285
130	0x3e24a71e	0.16079375
131	0x3e23c5ca	0.1599342
132	0x3f2c8a04	0.67398095
133	0x3f2b1585	0.6682971
134	0x3ed98af7	0.42488834
135	0x3f3f23b0	0.7466383
136	0x3ee40e8f	0.44542357
137	0x3f04dbc7	0.51897854
138	0x3f144d0f	0.5793008
139	0x3f2026d2	0.62559235
140	0x3f8d8a1c	1.1057773
141	0x3ed11136	0.40833443
142	0x3ecdd756	0.4020335
143	0x3e12b4f6	0.14326844
144	0x3eb99bf9	0.3625181
145	0x3f3a6e9d	0.7282503
146	0x3edb2b0e	0.42806286
147	0x3ee4334f	0.44570395
148	0x3ea44363	0.32082662
149	0x3f816767	1.0109681
150	0x3f04418f	0.51662534
151	0x3ee5b026	0.44860953
152	0x3f2c4969	0.67299515
153	0x3ed65182	0.4185906
154	0x3f3e537b	0.7434613
155	0x3f03918d	0.5139397
156	0x3f2a53dc	0.6653421
157	0x3e8974a0	0.2684679
158	0x3ed261b4	0.41090167
159	0x3f809a5c	1.0047107
160	0x3f88a2e2	1.0674708
161	0x3f7f3e64	0.99704576
162	0x3ea89a72	0.32930332
163	0x3f87aa17	1.0598782
164	0x3f0e5c76	0.55609834
165	0x3f5b8cf1	0.85761935
166	0x3e652e74	0.22381002
167	0x3f145bd8	0.5795264
168	0x3e98ac8c	0.29819143
169	0x3f49c4de	0.7881602
170	0x3f73af11	0.95189005
171	0x3ed401be	0.4140758
172	0x3f746f71	0.95482546
173	0x3ec5adb6	0.38609093
174	0x3e9367a5	0.28790012
175	0x3f2f3bd5	0.6845067
176	0x3e87f943	0.2655736
177	0x3f7b416f	0.9814672
178	0x3e931204	0.28724682
179	0x3f376c8c	0.71650004
180	0x3f0cb867	0.54968876
181	0x3e0cfe96	0.13768992
182	0x3f0634d6	0.5242437
183	0x3f47101c	0.77758956
184	0x3eda5ba1	0.42648032
185	0x3e14e765	0.14541395
186	0x3f3802e5	0.71879417
187	0x3f6c965a	0.9241692
188	0x3f8514b3	1.0396942
189	0x3d95d2cb	0.07315596
190	0x3f81e942	1.014931
191	0x3fb10a02	1.3831179
192	0x3eb891e6	0.36048812
193	0x3f5a7e0d	0.8534859
194	0x3ea915c5	0.3302442
195	0x3e9f0955	0.31061807
196	0x3f3b4392	0.7314998
197	0x3ed12e6b	0.40855727
198	0x3e8bc195	0.2729613
199	0x3e344635	0.17604907
200	0x3eba1239	0.36342028
201	0x3f4b7499	0.7947479
202	0x3f53166a	0.82456076
203	0x3f25b512	0.64729416
204	0x3f17771e	0.59166133
205	0x3ee04e05	0.43809524
206	0x3e2101bc	0.15723318
207	0x3f8782b6	1.0586765
208	0x3e64ec2d	0.22355719
209	0xbe99c8ca	-0.30036002
210	0x3f43d177	0.76491493
211	0x3ef34862	0.4751616
212	0x3f8e7afd	1.1131283
213	0x3f699e94	0.91257596
214	0x3eaca87d	0.33722296
215	0x3f879699	1.0592834
216	0x3dfb7377	0.122778825
217	0x3ec33bb4	0.38131487
218	0x3f375f39	0.71629673
219	0x3f7bb3d9	0.983213
220	0x3e396622	0.18105367
221	0x3f5663a9	0.8374582
222	0x3f435baa	0.76311743
223	0x3e5c1d4e	0.21495554
224	0x3ed8093e	0.4219455
225	0x3e5829ba	0.21109667
226	0x3ee53f9d	0.44775096
227	0x3eaf46ed	0.342338
228	0x3ed48663	0.4150878
229	0x3e8407b7	0.25787136
230	0x3e65f07d	0.2245502
231	0x3f440a13	0.7657787
232	0x3f2faab3	0.6861984
233	0x3f622ded	0.8835133
234	0x3f30c9cd	0.69057924
235	0x3f44a886	0.76819646
236	0x3e565433	0.20930557
237	0x3f497ea3	0.7870886
238	0x3f88ff83	1.0702976
239	0x3f3c51b9	0.735622
240	0x3ec7c206	0.39015216
241	0x3ec572ec	0.3856424
242	0x3f2f614d	0.68507844
243	0x3f63cb2d	0.88981897
244	0x3f82c2ba	1.0215676
245	0x3efd2eee	0.49449867
246	0xbe3fbdc1	-0.18724729
247	0x3f689c89	0.90863854
248	0x3f59e201	0.8511048
249	0x3f0043b7	0.50103325
250	0x3f47b7e4	0.7801497
251	0x3e71351b	0.23555414
252	0x3e233e79	0.159418
253	0x3f17b038	0.59253263
254	0x3f8349d9	1.0256912
255	0x3f438b83	0.76384753

bn1.bias f4 [400]
0	0xbcd8c730	-0.026462168
1	0x3ba680d3	0.005081275
2	0x3c6e709e	0.014553217
3	0x3c34adad	0.011027736
4	0x3cc3cc20	0.023901045
5	0x3d35dfcd	0.044402886
6	0x3d1e7832	0.038688846
7	0xbd3c4b7e	-0.045970432
8	0xbc0adbc6	-0.00847525
9	0x3d837dc7	0.064204745
10	0xbcc93966	-0.024563503
11	0xbc2301bb	-0.009949143
12	0x3bbedf34	0.0058249477
13	0x3d5a57a2	0.05330623
14	0x3c3ac7f2	0.01140021
15	0x3bb4ca8c	0.0055173095
16	0xbb88c816	-0.0041742427
17	0x3d1b866e	0.03797
18	0x3adb0a73	0.0016711488
19	0xbda0d7f8	-0.07853693
20	0xbd088569	-0.033330355
21	0xbd8d866d	-0.06910405
22	0xbca2b240	-0.019860387
23	0x3d476215	0.048677523
24	0xbd931416	-0.071815655
25	0x3bb071fb	0.0053846813
26	0x3dbeada1	0.09310461
27	0x3d451175	0.04811235
28	0x3cb1b46a	0.021692473
29	0x3c0d4f67	0.008624888
30	0xbc4b7834	-0.012418795
31	0xbbe1245a	-0.0068707885
32	0x3c37532a	0.011189261
33	0x3b94ceeb	0.004541268
34	0x3dad3b51	0.08458579
35	0x3cea4118	0.028595492
36	0xbd813ab7	-0.06310027
37	0xbd40b443	-0.04704691
38	0xbc933906	-0.017971527
39	0x3dc2e098	0.09515494
40	0xbc91be74	-0.01779101
41	0xbcd396e9	-0.025828796
42	0x3bcc95a9	0.006243427
43	0xbd387245	-0.04503085
44	0x3c199f4b	0.009376357
45	0x3cb4cde8	0.02207084
46	0xbd329436	-0.043598376
47	0xbd207e7e	-0.039183132
48	0x3c8f05b2	0.01745877
49	0xbcba2da4	-0.022726841
50	0x3d72dc98	0.059292406
51	0xbc89d965	-0.016827295
52	0xbca04c67	-0.019567681
53	0xbd023845	-0.031791944
54	0x3ccc0bca	0.024907965
55	0x3d1665fa	0.036718346
56	0x3d787f66	0.06066837
57	0xbd8640e2	-0.06555344
58	0x3d48e2f5	0.049044568
59	0xbd1b0d51	-0.037854496
60	0x3d268a51	0.040659253
61	0x3bf51675	0.0074794837
62	0x3d8d21f5	0.068912424
63	0x3c77915c	0.01511034
64	0x3dcc403f	0.099731915
65	0x3dbd2dc2	0.09237243
66	0x3d4d6983	0.050149452
67	0x3da27626	0.07932691
68	0x3c8e4930	0.017368883
69	0xbd1d3199	-0.038377378
70	0xbdc81b1e	-0.09770797
71	0x3c9a7c00	0.018857956
72	0x3d170c31	0.03687686
73	0xba83fdf1	-0.0010070187
74	0x3d29a105	0.041413326
75	0xbd0690f5	-0.032853086
76	0xbd465a98	-0.04842624
77	0xbd58eb37	-0.052958693
78	0x3c369ff0	0.0111465305
79	0x3cdd16bc	0.02698838
80	0xbc118b92	-0.008883374
81	0x3d0560f2	0.032563157
82	0x3bead72c	0.007166764
83	0xbd22c292	-0.039736338
84	0xbc3b1f98	-0.011421107
85	0xbd85f03d	-0.065399624
86	0x3d3867e1	0.04502094
87	0x3d78ce8e	0.06074386
88	0x3ceccaf8	0.028905377
89	0x3d6dfb34	0.058100894
90	0x3b12afb2	0.0022382555
91	0xbb890501	-0.0041815047
92	0xbd012b8d	-0.031535674
93	0xbbe25835	-0.0069074878
94	0x3c38fb80	0.011290431
95	0x3b9184c8	0.0044408776
96	0x3c9d332e	0.019189443
97	0xbd4326ec	-0.04764454
98	0xbd20c971	-0.03925461
99	0x3de488f3	0.111589335
100	0xbd5b8130	-0.05359
101	0xbc97bba9	-0.0185221
102	0xbd77031a	-0.060305692
103	0x3cd62ef4	0.026145436
104	0x3d51f705	0.051260967
105	0xbd1422b1	-0.036165897
106	0x3d848081	0.06469823
107	0x3b8f431c	0.0043720137
108	0xbc9a82b1	-0.018861147
109	0x3b4a7436	0.003089202
110	0x3c9d802d	0.019226158
111	0x3d202c43	0.03910471
112	0x3dd0bccb	0.101922594
113	0x3c61e802	0.013788225
114	0xbcbe7ff1	-0.023254367
115	0xbcff9048	-0.031196728
116	0xbc874d85	-0.016516456
117	0x3cb2ff19	0.021850156
118	0x3cc38751	0.023868235
119	0xbcadc0b4	-0.021210052
120	0x3d8d51d4	0.06900373
121	0xbc427224	-0.011868034
122	0xbd664171	-0.056214754
123	0xbb5f1ab5	-0.0034043018
124	0x3d4d1c87	0.050076034
125	0x3dd631bf	0.10458707
126	0xbd6e733e	-0.058215372
127	0xbd2a4d6a	-0.041577734
128	0xbc1e4e8a	-0.00966228
129	0xbc8dd9c7	-0.017315758
130	0x3d97a943	0.07405331
131	0xbcbf52e5	-0.023354957
132	0x3ca1f387	0.019769443
133	0xbd6a076e	-0.05713599
134	0x3ba38322	0.0049899975
135	0x3cc2604e	0.023727562
136	0xbccb5f49	-0.024825709
137	0xbd72c6c1	-0.059271578
138	0x3c665566	0.0140584465
139	0x3d8771f1	0.066135295
140	0xbb9ce436	-0.004787947
141	0x3c33a005	0.010963445
142	0xbd337513	-0.043812823
143	0x3d788f14	0.060683325
144	0xbc7737ba	-0.01508897
145	0xbca91951	-0.020641955
146	0xbd1c262d	-0.038122345
147	0x3d2373aa	0.039905228
148	0xbd3ecb93	-0.046580862
149	0x3cccb548	0.024988785
150	0xbd834cb9	-0.06411118
151	0xbd3c3fc4	-0.04595925
152	0xbcf33691	-0.029689105
153	0xbd205b5f	-0.03914964
154	0xbc365537	-0.011128715
155	0xbc9c5505	-0.01908351
156	0x3c69f01b	0.014278437
157	0x3ccbc293	0.024873054
158	0x3d04f0e9	0.032456312
159	0xbd0a8c70	-0.033825338
160	0x3d75b2dc	0.059985027
161	0x3cad5b15	0.021161595
162	0x3d2e212a	0.042512096
163	0xba941b1a	-0.0011299581
164	0x3d6fac1b	0.058513742
165	0xb8455a62	-4.7052636e-05
166	0xbc73788c	-0.014860284
167	0xbd474e5b	-0.04865871
168	0x3c94ed5e	0.018179592
169	0x3d9f0754	0.077650696
170	0x3d20e4db	0.039280754
171	0x3d05a236	0.0326254
172	0x3c4ef766	0.012632227
173	0x3d0ee339	0.034884665
174	0x3d8d717b	0.0690641
175	0xbc5f77c4	-0.013639394
176	0x3af5a8ee	0.0018742362
177	0x3d2b53dc	0.04182802
178	0x3df7f8a7	0.121079735
179	0x3da30d9c	0.0796158
180	0x3b8bf06e	0.004270605
181	0xbd2f02a6	-0.042727135
182	0x3b3d8b09	0.0028921983
183	0xbc95f4fc	-0.018305294
184	0x3d09038c	0.03345065
185	0x3d73ec4b	0.05955152
186	0xbb4829c8	-0.0030542482
187	0x3cc7bcad	0.02438196
188	0x3cedbf54	0.029021896
189	0x3de62b34	0.11238709
190	0x3c04d4e9	0.008107402
191	0xbb90b604	-0.004416229
192	0xbcb5c571	-0.022188874
193	0x3cea6f75	0.0286176
194	0x3d235e2b	0.039884727
195	0x3de8a4dd	0.1135957
196	0xbc24271c	-0.01001909
197	0x3c932c69	0.017965512
198	0x3c7891a5	0.015171443
199	0xbc973cd3	-0.01846162
200	0xbc6f7450	-0.014615133
201	0x3d2f3a52	0.042780228
202	0x3bc6ccb2	0.006066882
203	0x3cb71655	0.022349516
204	0x3d88d06a	0.06680377
205	0xbc341dea	-0.01099346
206	0x3c359f23	0.011085304
207	0x3d3f1bd2	0.04665739
208	0xbcfea548	-0.031084672
209	0x3dc5c9b9	0.09657616
210	0xbc400fc8	-0.011722513
211	0xbd11c9af	-0.03559273
212	0xbcaac5c1	-0.02084625
213	0x3bf70213	0.007538089
214	0x3d77a05c	0.060455665
215	0xbd20d645	-0.039266843
216	0x3d9eb830	0.07749975
217	0x3d86dd07	0.06585126
218	0x3d16a6dd	0.036780227
219	0x3ad1f38c	0.0016018017
220	0x3ccbaee2	0.024863664
221	0xbd013d8e	-0.031552844
222	0x3b8dd512	0.0043283785
223	0x3d2dbbf7	0.042415585
224	0x3d5d59e8	0.05404082
225	0xbd2d1986	-0.04226067
226	0x3d1cd67d	0.03829049
227	0xbda3d0d1	-0.07998813
228	0xba0fbc6b	-0.00054830936
229	0xbd3247ef	-0.043525632
230	0xbbb32f71	-0.005468302
231	0xbd11c317	-0.035586443
232	0xbd2d9f45	-0.04238822
233	0xbc017a3b	-0.007902677
234	0x3d400de4	0.046888247
235	0x3d11c45c	0.035587654
236	0xbdb1aeb2	-0.086758986
237	0xbd56a17e	-0.052400105
238	0xbd755b95	-0.059901793
239	0xbcad80f0	-0.021179646
240	0xbd127508	-0.03575614
241	0xbc29ff40	-0.010375798
242	0x3da185ad	0.07886825
243	0x3d7a6927	0.061135437
244	0x3d4bf449	0.049793515
245	0xbd46545f	-0.048420306
246	0x3d8e5702	0.06950189
247	0x3d7fd993	0.062463354
248	0x3bc061d1	0.0058710356
249	0xbd4d46d6	-0.050116383
250	0x3d2da6c4	0.04239537
251	0xbcd57c49	-0.02606024
252	0xbcb214c7	-0.021738423
253	0xbd2b4bc4	-0.041820303
254	0xbc859041	-0.016304137
255	0xbd0fe676	-0.035131894
