actor_target_0.pt (torch_old, 531450 bytes, 10 tensors)

fc1.weight f4 [400, 24]
0	0x3ce4920b	0.02790167
1	0x3cce36ca	0.02517261
2	0xbca4fdd4	-0.020140566
3	0xbcafe3dd	-0.021470958
4	0xbd8bb90b	-0.068224035
5	0xbda2760d	-0.07932673
6	0x3b69ae02	0.0035656695
7	0x3d285823	0.04109968
8	0x3d8a5479	0.06754393
9	0xbdaca431	-0.084297545
10	0xbcefacf6	-0.029257279
11	0xbd5235d7	-0.051320877
12	0xbd9aeabf	-0.075643055
13	0xbd263692	-0.040579386
14	0x3ce98239	0.028504478
15	0xbcbdbfe3	-0.023162788
16	0x3be7a970	0.007069759
17	0xbd969ce1	-0.07354141
18	0xbd6977a6	-0.05699887
19	0x3c5e00e9	0.013550022
20	0xbd15149b	-0.036396604
21	0xbdff11cd	-0.12454567
22	0x3cb3db84	0.02195526
23	0x3d3ef496	0.046619974
24	0x3d7f5c93	0.062344145
25	0x3be06be8	0.006848801
26	0xbcff605c	-0.031173877
27	0x3d523d67	0.05132809
28	0x3d8960f6	0.06707947
29	0xbe0fa257	-0.14026771
30	0xbd19eb9a	-0.037578203
31	0x3d3edf42	0.046599634
32	0x3b2424af	0.002504628
33	0x3c80b124	0.015709467
34	0x3cb80f68	0.022468284
35	0x3ca1f952	0.019772206
36	0xbd027842	-0.031852968
37	0xbd4271c4	-0.047471777
38	0xbc68885f	-0.01419267
39	0x3c60a436	0.013711026
40	0x3d92bee3	0.07165315
41	0xbca543f0	-0.020173997
42	0xbafb58e2	-0.0019176269
43	0x3d67c89a	0.056587793
44	0xbc3f5173	-0.011677134
45	0xbde55786	-0.111983344
46	0xbc1d5cba	-0.009604627
47	0x3d962da1	0.07332922
48	0x3bc1c010	0.005912788
49	0x3d1775b7	0.036977496
50	0xbbed6ac0	-0.0072453916
51	0x3cd8d5ba	0.0264691
52	0x3b275e89	0.0025538525
53	0x3cd5b523	0.02608735
54	0xbb34e4ca	-0.002760219
55	0x3d18a90c	0.03727059
56	0x3d1fcd39	0.039014075
57	0x3da11970	0.0786618
58	0x3a58c993	0.0008269783
59	0xbcf8d420	-0.030374587
60	0x3c2753c2	0.0102128405
61	0xbd051099	-0.032486532
62	0xbbebde3e	-0.007198124
63	0x3bfc663b	0.0077026165
64	0x3c97947a	0.018503416
65	0x3dc65eaa	0.096860245
66	0xbcfae459	-0.030626463
67	0x3d2e7667	0.042593386
68	0x3d79b5f0	0.060964525
69	0xbe93bf55	-0.28856912
70	0x3cf2ffe3	0.029663032
71	0x3aa4a2f2	0.0012560769
72	0xbc9e62a9	-0.019334154
73	0x3d269ad0	0.040674984
74	0x3cd1c47c	0.025606386
75	0x3dc0f25a	0.09421225
76	0x3de0de06	0.109798476
77	0x3cfd0de6	0.030890416
78	0xbc92e9dd	-0.01793378
79	0x3dddc4d1	0.108285554
80	0x3d14ea9b	0.03635655
81	0x3c9e3eba	0.01931702
82	0xbcd4cd99	-0.025976943
83	0x3d3a4b5e	0.045482032
84	0x3dc17717	0.09446543
85	0xbcef80ba	-0.029236186
86	0x3bd93abb	0.0066293157
87	0x3d3c83a1	0.04602397
88	0xbc8d1794	-0.017223157
89	0x3cfff26c	0.031243525
90	0xbc6c38e8	-0.014417864
91	0x3d32a709	0.04361633
92	0xbc565ccd	-0.013083649
93	0x3ad70c63	0.001640689
94	0x3d063909	0.032769237
95	0x3c8f1a1a	0.0174685
96	0x3cbb6342	0.022874478
97	0x3db85cdd	0.09002087
98	0x3d7a63cb	0.061130326
99	0xbcddfe28	-0.02709873
100	0xbd0f3497	-0.034962263
101	0xbd11b41a	-0.03557215
102	0x3d536c40	0.051616907
103	0x3d0508f9	0.03247926
104	0xbd2063dd	-0.039157737
105	0x3e124395	0.14283593
106	0x3d13a267	0.03604355
107	0x3ccf56da	0.025309969
108	0xbd48a7c2	-0.04898811
109	0xbbc4ccbf	-0.006005853
110	0xbc990580	-0.01867938
111	0xbc323c0d	-0.010878575
112	0xbca8d53b	-0.020609489
113	0x3df5cb81	0.12001706
114	0x39b0ce62	0.00033723103
115	0x3df7a026	0.12091093
116	0x3c753df7	0.014968387
117	0x3c9dfcb4	0.019285537
118	0x3c9b586d	0.018963063
119	0x3dedf102	0.11618234
120	0x3cf29062	0.029609863
121	0xbd5b4dd3	-0.053541016
122	0xbaa79838	-0.0012786454
123	0x3da92fe2	0.08261086
124	0x3ccecdaa	0.025244553
125	0x3d2e8f41	0.042617086
126	0xbd907f33	-0.07055511
127	0x3db1a2dd	0.08673642
128	0x3dd206da	0.10255213
129	0xbad549a3	-0.0016272556
130	0x3d6e650d	0.05820184
131	0x3da9e127	0.082948975
132	0xbd10b0ed	-0.03532498
133	0xbc77a622	-0.015115293
134	0xbc99dd7e	-0.018782374
135	0x3a5d1d0b	0.00084348087
136	0x3d95a4d4	0.07306829
137	0x3d5ba04e	0.053619675
138	0xbb0cbf92	-0.002147649
139	0xbca7cb37	-0.020482643
140	0xbc09c95e	-0.008409826
141	0xbd22470d	-0.03961854
142	0x3bd0658e	0.0063597625
143	0x3d40c317	0.047061052
144	0x3dde5371	0.10855759
145	0x3d810121	0.062990434
146	0xbb874f5a	-0.0041293325
147	0xbd1871f0	-0.037218034
148	0x3a1ad773	0.0005906738
149	0xbdcd8ab2	-0.1003622
150	0xbb5e18d4	-0.003388931
151	0xbbb0b892	-0.0053930962
152	0x3daa159a	0.083049014
153	0x3d863280	0.06552601
154	0x3c8f91e7	0.017525626
155	0x3d5cbc47	0.053890493
156	0xbd1d040e	-0.038333945
157	0xbdc41ec2	-0.09576179
158	0xbc03c1c7	-0.008041806
159	0x3d3b35ec	0.04570572
160	0x3d312235	0.043245513
161	0x3ceb03cb	0.028688332
162	0x3cb87af4	0.022519566
163	0x3d150d2f	0.036389526
164	0xbacc459f	-0.0015584714
165	0xbd96ffd6	-0.073730156
166	0xbb85457f	-0.0040671225
167	0xbc90d828	-0.017681196
168	0xbd2912a6	-0.04127755
169	0x3d82ac90	0.0638057
170	0xbbc6382a	-0.0060491757
171	0x3cf5d08d	0.030006671
172	0x3dad8b23	0.08473804
173	0x3d0a5cbe	0.033779852
174	0xbc4f9512	-0.0126698185
175	0x3d21e6fe	0.039526932
176	0x3bf2f65b	0.0074146218
177	0x3d600fd6	0.054702602
178	0xbc60780c	-0.013700496
179	0x3d8f8176	0.070071146
180	0x3ca8f686	0.020625364
181	0x3d647544	0.055775896
182	0x3b85b808	0.004080776
183	0x3e11a80c	0.14224261
184	0xbd85b806	-0.0652924
185	0x3daef843	0.08543446
186	0x3d2d5396	0.042316042
187	0x3dcf8900	0.101335526
188	0x3c0f46c5	0.0087449
189	0xbcde7a19	-0.02715783
190	0xbc9ad73d	-0.018901462
191	0x3e096740	0.13418293
192	0xbc93be80	-0.018035173
193	0xbc494674	-0.012284864
194	0x3bd9d43b	0.0066476143
195	0xbd1183f8	-0.035526246
196	0x3b5749e4	0.0032850439
197	0xbdb77adf	-0.08958983
198	0xbbe25e71	-0.006908231
199	0xbdaf103b	-0.085480176
200	0x3c5ae9ee	0.013361437
201	0xbd95b3fd	-0.07309721
202	0x3d421830	0.04738635
203	0x3cc798dd	0.024364883
204	0x3d854943	0.06508114
205	0xbd3c5a6d	-0.045984674
206	0xbd265fcf	-0.040618714
207	0x3bcf1ebf	0.006320804
208	0x3c214fd8	0.009845696
209	0xbd848c69	-0.064720936
210	0xbc9bf073	-0.019035554
211	0xbd114bd9	-0.035472725
212	0x3e1adc70	0.15123153
213	0xbe227e56	-0.15868506
214	0x3cdad1eb	0.026711425
215	0xbd3e103c	-0.0464022
216	0x3d38eaf6	0.04514595
217	0x3d9a54a9	0.07535679
218	0xbc966f9e	-0.01836377
219	0x3a18b7f1	0.0005825749
220	0x3cd1763a	0.02556907
221	0xbcaff217	-0.021477742
222	0x3bd64aea	0.006539692
223	0x3d7d85b6	0.061895095
224	0x3df3c9ed	0.11903749
225	0x3d12d0de	0.035843723
226	0x3d1fbe02	0.038999565
227	0xbb6f7e20	-0.0036543682
228	0xbc4352a0	-0.011921555
229	0xbd0e1605	-0.03468897
230	0x3d1d6e82	0.038435467
231	0x3c78251e	0.015145568
232	0x3da5b6bd	0.08091495
233	0x3d936873	0.071976565
234	0x3b493ef3	0.0030707687
235	0x3d16cb1c	0.036814794
236	0xbd81803c	-0.06323287
237	0xbda4b2a5	-0.08041886
238	0x3c2de7a0	0.010614306
239	0x3b96518f	0.0045873593
240	0x3d025da9	0.031827603
241	0xbe0a9a8e	-0.1353552
242	0xbceaadc1	-0.028647305
243	0x3d453aff	0.048151966
244	0xbd91bf39	-0.07116551
245	0x3aa592fb	0.0012632305
246	0x3caf7d4c	0.02142205
247	0xbc3230d1	-0.010875897
248	0x3d406dd8	0.046979755
249	0xbd4664d5	-0.048436005
250	0xbc56b25f	-0.01310405
251	0xbc705149	-0.014667817
252	0xbdc05a4f	-0.09392225
253	0xbc0416b4	-0.0080620535
254	0x3c8fa973	0.017536854
255	0x3c98f777	0.018672688

fc1.bias f4 [400]
0	0xbdf9ff97	-0.12206953
1	0xbdb83359	-0.08994169
2	0x3e127326	0.14301738
3	0xbdae5752	-0.08512749
4	0x3e2c4de2	0.16826585
5	0xbe6992c9	-0.228099
6	0xbe74c0df	-0.239017
7	0x3e22a2aa	0.15882364
8	0x3de216ef	0.110395305
9	0xbdc36074	-0.09539881
10	0x3d975789	0.07389743
11	0x3d36cfaf	0.044631656
12	0xbe46c961	-0.19412757
13	0x3c5387b6	0.012910774
14	0xbe0c96de	-0.13729426
15	0xbe9babdb	-0.30404553
16	0xbe203732	-0.15646055
17	0xbdb52651	-0.08845199
18	0xbd4c8576	-0.049931966
19	0xbcc5afa5	-0.024131605
20	0xbdd11289	-0.102086134
21	0xbe82bf3c	-0.25536525
22	0xbe10f188	-0.14154637
23	0x3dd8d1e5	0.10586909
24	0xbdaceaa1	-0.084431894
25	0xbe4a2e3e	-0.19744202
26	0xbe5d03bd	-0.21583457
27	0xbe1b9cd5	-0.15196545
28	0xbe74f3e0	-0.23921156
29	0xbe06b260	-0.13153982
30	0x3d90f35d	0.07077668
31	0xbea82eb2	-0.32848126
32	0x3d8ed33c	0.069738835
33	0xbcf2c43e	-0.029634591
34	0xbd625e93	-0.055265974
35	0x3dcdbec3	0.100461505
36	0x3cbd19ea	0.023083646
37	0x3d995f79	0.07488913
38	0xbd8f6575	-0.07001773
39	0xbdc17a9e	-0.094472155
40	0xbe6ee47c	-0.23329347
41	0x3e3f858c	0.18703288
42	0xbcb41f3f	-0.021987556
43	0xbe0dc7c8	-0.13845742
44	0xbddb030e	-0.10693942
45	0xbdce7bec	-0.1008223
46	0x3d6e1063	0.058121096
47	0xbdca3c73	-0.09874811
48	0x3da7eea0	0.08199811
49	0x3bd31b2b	0.0064424477
50	0xbe67b894	-0.22629005
51	0xbd44fd65	-0.04809322
52	0x3df93672	0.12168588
53	0x3e211bdb	0.15733282
54	0xbd9c0c4a	-0.076195315
55	0xbdd8382f	-0.10557591
56	0x3e32a93c	0.1744737
57	0xbe7ffd6b	-0.24999015
58	0xbcbc4caf	-0.022985784
59	0xbe19b96b	-0.15012138
60	0x3dd77475	0.10520259
61	0x3d3ca729	0.046057854
62	0x3deeb75b	0.11656066
63	0xbe0fea40	-0.14054203
64	0x3ded448a	0.115853384
65	0xbe335270	-0.17511916
66	0x3d824b41	0.0636201
67	0x3e123a89	0.14280142
68	0xbd158640	-0.036504984
69	0xbe81faff	-0.25386807
70	0xbe6a404a	-0.22876087
71	0xbdb841f2	-0.08996953
72	0xbe2547d8	-0.16140687
73	0xbdcb0e4f	-0.099148385
74	0x3dcf3f15	0.10119454
75	0xbe495f89	-0.1966535
76	0x3b1f12fd	0.0024272793
77	0x3cdc9ee1	0.026931228
78	0x3d92efbd	0.07174633
79	0xbe388943	-0.18021111
80	0xbb201844	-0.0024428526
81	0xbe37cf10	-0.17950082
82	0x3e444ddb	0.19170325
83	0xbe0d760a	-0.1381456
84	0x3dc765ee	0.097362384
85	0x3c4994b6	0.012303522
86	0x3e298411	0.16554286
87	0x3cc98178	0.024597868
88	0xbc79e5a2	-0.015252503
89	0xbe060570	-0.13088012
90	0xbd59bca8	-0.053158432
91	0xbd7e6342	-0.06210638
92	0x3e34041a	0.1757969
93	0x3ce9bc25	0.028532097
94	0xbd021101	-0.031754497
95	0x3d2ae43f	0.04172158
96	0x3d91935d	0.071081854
97	0xbe590d54	-0.2119649
98	0xbd6826bb	-0.05667756
99	0xbbcd531e	-0.006266012
100	0xbd894a33	-0.067036055
101	0x3e3a2935	0.18179782
102	0xbe8aec78	-0.27133536
103	0xbe3058c9	-0.17221369
104	0xbe9480de	-0.29004568
105	0xbd1fa658	-0.038976997
106	0xbd81574d	-0.063154794
107	0xbe88ff81	-0.26757434
108	0xbc97d780	-0.018535376
109	0xbe4896a6	-0.19588718
110	0xbc17e229	-0.009270229
111	0xbe425aee	-0.1898
112	0xbe441922	-0.19150212
113	0xbe4093a7	-0.18806325
114	0xbc331cde	-0.010932175
115	0x3c9187c5	0.017764935
116	0x3d5a2b8b	0.053264182
117	0xbe23a8eb	-0.15982406
118	0xbdf69179	-0.120394655
119	0xbdd17b1b	-0.10228559
120	0xbe3d62f4	-0.18494779
121	0xbe556623	-0.20839743
122	0xbe4ff014	-0.20306426
123	0x3e0f5d75	0.14000495
124	0xbe2c30d5	-0.16815503
125	0x3d919277	0.07108014
126	0xbd5f00a1	-0.05444396
127	0xbe6206fd	-0.22072978
128	0x3dfc51e9	0.123203106
129	0xbd9c87a8	-0.07643062
130	0xbe788127	-0.24268018
131	0xbe797627	-0.24361478
132	0xbe73135d	-0.23737855
133	0x3d0bf93e	0.034173243
134	0xbe2cdb60	-0.1688056
135	0xbe1f42c9	-0.1555282
136	0xbd16d86a	-0.036827482
137	0xbda50b6f	-0.080588214
138	0xbd0f2cff	-0.03495502
139	0x3dad7baa	0.08470853
140	0x3b00f1fb	0.0019675482
141	0xbc8e056b	-0.017336568
142	0xbd71ec83	-0.059063446
143	0x3e34edd6	0.17668852
144	0xbdd36a76	-0.1032304
145	0xbc3fbc05	-0.011702542
146	0x3c91eb7c	0.017812483
147	0xbce26342	-0.02763522
148	0x3c2f19cb	0.010687302
149	0x3c2c8455	0.010529597
150	0xbe2d059e	-0.16896674
151	0xbde3d22e	-0.11124073
152	0xbd762a1d	-0.060098756
153	0x3cfb4226	0.03067119
154	0xbe52c337	-0.20582281
155	0xbe1c0e84	-0.15239912
156	0xbc9bbdaa	-0.019011337
157	0x3d7e798a	0.062127627
158	0xbd998728	-0.07496482
159	0xbb23f698	-0.0025018808
160	0xbd2a3255	-0.041551907
161	0xbe72502b	-0.23663394
162	0xbe88f101	-0.2674637
163	0xbe11ef1f	-0.14251374
164	0x3dfb0c51	0.122582085
165	0x3d2dc50f	0.042424258
166	0xbd3f4165	-0.046693224
167	0xbdc80366	-0.09766273
168	0xbd8133e4	-0.063087255
169	0xbe7d4f40	-0.24737263
170	0xbc9e59dc	-0.019329958
171	0x3d1e6c27	0.03867736
172	0xbe53c282	-0.20679668
173	0x3d10cfbe	0.03535437
174	0x3cbe974a	0.0232655
175	0x3c7df47a	0.015500182
176	0x3d8e5a3d	0.06950805
177	0xbdbde6cc	-0.09272537
178	0xbcf878af	-0.030330984
179	0xbe1356ea	-0.14388624
180	0x3dc55a3a	0.0963635
181	0xbe20888f	-0.15677093
182	0x3d680731	0.056647483
183	0xbdaeef40	-0.08541727
184	0xbe43faa4	-0.1913858
185	0x3d2bd21f	0.041948434
186	0xbdee5aa1	-0.1163838
187	0x3dbe9e1a	0.09307499
188	0xbe5cff2e	-0.21581718
189	0x3dca9d04	0.098932296
190	0xbe43f070	-0.19134688
191	0x3d6240c0	0.05523753
192	0x3e1f9620	0.15584612
193	0xbe56178b	-0.20907418
194	0xbd1d8483	-0.03845645
195	0x3d916e22	0.07101084
196	0x3bc2c455	0.0059438148
197	0xbdbb7af2	-0.09154309
198	0xbe4f0247	-0.20215712
199	0x3dd99134	0.106233984
200	0x3da3434e	0.07971822
201	0x3e3ea1aa	0.18616357
202	0xbde93b00	-0.113882065
203	0x3daaebfe	0.08345793
204	0xbd5d5013	-0.054031443
205	0xbde04f10	-0.1095258
206	0xbe129cf0	-0.1431768
207	0x3e228b67	0.1587349
208	0x3e1607ee	0.14651462
209	0x3e1f4a43	0.15555672
210	0xbe67afd7	-0.22625671
211	0xbd9c6e1e	-0.07638191
212	0xbd5701ec	-0.052492067
213	0xbcff66db	-0.031176975
214	0x3cdfa534	0.027300455
215	0x3e0d64d7	0.13807999
216	0xbbd2cb96	-0.0064329607
217	0x3d4ca5eb	0.04996292
218	0xbe232f94	-0.15936118
219	0xbdaa6e3b	-0.08321806
220	0x3ce6dd7d	0.028181786
221	0x3d356939	0.0442898
222	0xbc82d72d	-0.015971744
223	0xbd41d25d	-0.04731976
224	0x3d926a48	0.07149178
225	0x3e0374d3	0.12837534
226	0xbe6e7b0c	-0.23289126
227	0xbe25ea36	-0.16202626
228	0x3d80ba6f	0.062855594
229	0xbe9d7d32	-0.3075958
230	0x3db18455	0.086678185
231	0xbdff4353	-0.12464013
232	0x3e20f66f	0.15719007
233	0x3dac6503	0.08417704
234	0xbe2a713d	-0.1664476
235	0xbd2d433a	-0.04230044
236	0xbdee2388	-0.11627871
237	0xbc9ad5bb	-0.018900743
238	0xbd1bf4a0	-0.03807509
239	0xbe7b893f	-0.24564074
240	0xbe1621f3	-0.14661388
241	0x3d52e4bd	0.051487673
242	0x3cf24099	0.029571818
243	0xbd531307	-0.051531818
244	0x3dacb69a	0.08433266
245	0x3dfc49bc	0.12318751
246	0xbdd80e19	-0.10549564
247	0xbda43a13	-0.08018889
248	0xbd71655e	-0.058934562
249	0x3b35a063	0.0027714006
250	0xbe38d5fa	-0.18050376
251	0xbd945671	-0.0724305
252	0x3dab0f3d	0.08352516
253	0xbe67092d	-0.22562094
254	0xbe533f76	-0.20629677
255	0xbe16f0fe	-0.14740369

fc2.weight f4 [300, 400]
0	0x3c2c39ee	0.010511858
1	0x3bdb1559	0.0066858944
2	0x3d3f1343	0.04664923
3	0x3dbdbd1a	0.09264584
4	0xbd5f057a	-0.054448582
5	0x3d2a7064	0.04161109
6	0xbc80bd78	-0.015715346
7	0x3d594d25	0.053052086
8	0x3d45fe3a	0.048338152
9	0xbd7931ed	-0.06083863
10	0x3cd9db70	0.026593894
11	0xbde26507	-0.11054426
12	0xbdae8d26	-0.08523016
13	0x3c4479c6	0.011991924
14	0x3dd1c2ec	0.102422565
15	0x3d6ce18f	0.057832297
16	0x3b8285d1	0.0039832373
17	0xbcaa61d1	-0.020798596
18	0x3ce8cea0	0.028418839
19	0x3dd9a9e3	0.106281064
20	0x3ca5d290	0.020242006
21	0xbdb50252	-0.08838333
22	0x3d1de972	0.03855271
23	0x3d153502	0.036427505
24	0x3cbc6b8f	0.023000507
25	0x3d05cdd5	0.032667
26	0xbd0d022a	-0.034425892
27	0x3da6ac2b	0.08138307
28	0xbd89a486	-0.067208335
29	0xbd10da39	-0.035364363
30	0xbb3521c8	-0.0027638543
31	0x3e05b786	0.1305829
32	0xbd82008e	-0.06347762
33	0xbc97cca2	-0.018530194
34	0xbd453184	-0.048142925
35	0xbe450643	-0.1924067
36	0xbd5c6156	-0.053803764
37	0xbc92c738	-0.01791726
38	0x3d620c44	0.05518748
39	0x3e148127	0.14502393
40	0xbd27b3b5	-0.040942866
41	0xbd60cd14	-0.054883078
42	0xbdb7b269	-0.08969576
43	0xbc9ec0d3	-0.019379055
44	0x3c2134ba	0.009839231
45	0xbd9de814	-0.07710281
46	0xbbc2c293	-0.005943605
47	0x3d88ce66	0.066799924
48	0x3e17edee	0.14836857
49	0x3d8a8671	0.06763924
50	0x3e2c9ec6	0.16857442
51	0x3d22184b	0.03957395
52	0x3d79aa5b	0.06095348
53	0x3d9fa947	0.07795959
54	0xbced2aa2	-0.028950993
55	0x3d2c3659	0.042044017
56	0x3b9da95c	0.004811449
57	0xbd0d1594	-0.034444407
58	0xbd2bcd16	-0.041943632
59	0xbe0dccf3	-0.13847713
60	0x3d68758b	0.056752723
61	0xb990250e	-0.00027493428
62	0x3c8685ec	0.01642128
63	0x3ce945d3	0.028475678
64	0xbd4424db	-0.04788671
65	0xbe51335a	-0.20429745
66	0xbd7d53c8	-0.06184748
67	0x3dc0966b	0.0940369
68	0xbcec3ddc	-0.02883809
69	0xbcbb5a18	-0.022870108
70	0xbdd1885e	-0.10231088
71	0x3d8473e5	0.06467418
72	0xbc1687b8	-0.009187631
73	0x3d6c1266	0.057634734
74	0xbdc0ebcf	-0.09419977
75	0x3da60741	0.08106852
76	0x3bcf4d58	0.0063263588
77	0xbcc076ee	-0.02349421
78	0x3ce16936	0.027515989
79	0x3e36bc04	0.1784516
80	0xbca08c36	-0.019598108
81	0x3d462fed	0.04838555
82	0x3d197421	0.037464265
83	0xbd61884b	-0.05506162
84	0x3d000530	0.031254947
85	0x3d72da38	0.05929014
86	0x3ce34623	0.027743405
87	0xbcf0ee7b	-0.029410591
88	0x3d8b504b	0.06802424
89	0xbcb1a796	-0.021686357
90	0x3dc788a8	0.09742862
91	0xbd0c801e	-0.03430187
92	0xbd9213c2	-0.07132675
93	0x3d0edfbb	0.034881335
94	0x3be6a834	0.0070390943
95	0xbcaf35f2	-0.021388028
96	0x3ce01fce	0.027358916
97	0x3d955f46	0.072935626
98	0xbd8c3ca1	-0.068475015
99	0xbd674632	-0.056463428
100	0x3d42091d	0.047371972
101	0x3ce97d6f	0.028502194
102	0x3d4c7445	0.04991557
103	0x3d3971c5	0.045274515
104	0x3c07b738	0.008283429
105	0xbd98d4e8	-0.07462484
106	0x3d4f4cc6	0.050610326
107	0x3da72db6	0.081630155
108	0xbd8cc159	-0.06872816
109	0xbd465770	-0.04842323
110	0x3d04b96e	0.032403402
111	0x3c2879ae	0.010282917
112	0xbd969f80	-0.07354641
113	0x3ca265c2	0.019823913
114	0x3cc0278c	0.023456357
115	0x3bd42ec5	0.006475302
116	0xbceb627d	-0.028733486
117	0xbc682956	-0.0141700115
118	0xbd322e50	-0.0435012
119	0xbc257cb2	-0.01010053
120	0xbc2d6121	-0.010582239
121	0x3d434efe	0.047682755
122	0x3dcc51ea	0.09976561
123	0x3d83d9da	0.06438036
124	0x3c7a2dde	0.015269725
125	0x3cd05870	0.025432795
126	0x3c8ae758	0.016956016
127	0x3d979b0c	0.0740262
128	0xbda0283e	-0.078201756
129	0x3d973c6f	0.07384574
130	0x3cd2ed41	0.025747897
131	0x3d718250	0.058962166
132	0x3d146165	0.036225695
133	0xba28d27e	-0.0006440057
134	0xbdbb1741	-0.09135295
135	0xbd348e22	-0.04408086
136	0x3dd42a7a	0.10359664
137	0xbd01d606	-0.03169825
138	0x3d887d87	0.066645674
139	0xbd716de3	-0.058942687
140	0xbce30ed7	-0.027717037
141	0x3c187a98	0.009306572
142	0xbd6ef494	-0.058338717
143	0x3d8745f2	0.06605138
144	0x3ab2c6c5	0.001363956
145	0xbca20b7a	-0.019780863
146	0x3dbebed6	0.09313743
147	0xbd94884e	-0.072525606
148	0x3d42a45b	0.047520023
149	0x3de9a8b7	0.11409133
150	0xbd31d194	-0.04341276
151	0x3d061b60	0.03274095
152	0xbadfb9c5	-0.0017068913
153	0xbc936028	-0.017990187
154	0x3d73247a	0.05936096
155	0x3bddbb6b	0.0067667267
156	0xbd4688df	-0.048470374
157	0x3c383163	0.011242243
158	0x3c9fc6ac	0.019503914
159	0x3d4a27d7	0.0493544
160	0xbd8b3a2e	-0.06798206
161	0xbd8e419d	-0.069461085
162	0xbae98238	-0.0017815297
163	0x3d24e3b7	0.04025623
164	0x3cb83952	0.02248827
165	0x3dc97634	0.098369986
166	0x3dc45cac	0.09587988
167	0x3cd3f3a8	0.02587302
168	0xbbad2d45	-0.0052849376
169	0xbca8e83a	-0.020618547
170	0x3d2dce6b	0.042433184
171	0x3df7f60d	0.12107477
172	0xbccbc268	-0.024872974
173	0x3cdecb78	0.02719663
174	0x3e2e507d	0.17022891
175	0x3cb52be8	0.022115663
176	0x3d038787	0.03211167
177	0x3c8cd891	0.01719311
178	0x3d85a3bd	0.06525371
179	0xbd735dc2	-0.059415586
180	0xbca3848b	-0.019960662
181	0xbcbaa877	-0.022785408
182	0x3cdcc058	0.026947185
183	0xbd79badf	-0.06096923
184	0x3dcae35c	0.099066466
185	0x3c830142	0.01599181
186	0x3ced4678	0.028964266
187	0xbd587d7f	-0.052854057
188	0x3da0519e	0.07828067
189	0x3b8d373c	0.004309563
190	0x3d30f196	0.043199144
191	0x3c692884	0.014230851
192	0x3d11dc9a	0.035610773
193	0xbca452d7	-0.020059032
194	0xbc268972	-0.010164605
195	0x3cd3d226	0.025857043
196	0xbd058a45	-0.032602567
197	0xbc96aeac	-0.018393837
198	0x3cf94159	0.030426668
199	0xbd9d8bbf	-0.0769267
200	0x3c99aae0	0.018758237
201	0xbd36c5c0	-0.044622183
202	0x3d6ec953	0.058297466
203	0xbd5416ef	-0.051779684
204	0x3cbc988e	0.023021962
205	0x3d47f8a1	0.048821095
206	0xbd37d07f	-0.04487657
207	0x3ce4f607	0.027949346
208	0x3d7ea039	0.06216452
209	0xbd532b5f	-0.051555034
210	0xbc6e80f8	-0.014557116
211	0x3d8d66f1	0.069044
212	0xbb587441	-0.0033028277
213	0xbca3d1f3	-0.019997573
214	0xbd249d43	-0.04018904
215	0x3d0e453a	0.03473399
216	0xbd1714fc	-0.036885247
217	0x3ca13f9c	0.019683652
218	0x3ae19c26	0.0017212674
219	0x3c8f0afb	0.01746129
220	0x3d980755	0.074232735
221	0xbb2af9bb	-0.0026088792
222	0xbd839525	-0.064249314
223	0xbda1f7f6	-0.07908623
224	0x3cbc9c97	0.023023887
225	0x3da1a7d4	0.07893339
226	0x3d88ae48	0.066738665
227	0x3d6abdec	0.05731003
228	0xbe085438	-0.13313377
229	0x3d1c0276	0.038088284
230	0xbd1e0cfc	-0.0385866
231	0x3db922ce	0.090398416
232	0xbd32644b	-0.043552678
233	0x3d2ca3f1	0.042148534
234	0x3cb21801	0.021739962
235	0xbd80da2d	-0.06291614
236	0xbd33de07	-0.043912914
237	0x3d804a86	0.06264214
238	0xbdefc5cd	-0.117076494
239	0x3de39494	0.111123234
240	0xbe34d3e4	-0.17658955
241	0x3d598164	0.053101912
242	0x3cddbfd3	0.027069008
243	0xbd22f8cf	-0.039788064
244	0x3d01d6ce	0.031698994
245	0xbb453dc3	-0.0030096627
246	0x3cf70cb0	0.030157417
247	0xbd3c979c	-0.046043023
248	0x3d98a13c	0.07452628
249	0xbd91e42b	-0.07123598
250	0x3e00b250	0.12568021
251	0x3d6864eb	0.056736868
252	0xbd3ae038	-0.045623988
253	0x3cf0df6b	0.029403409
254	0x3dc62c4d	0.096764185
255	0x3d6b1628	0.057394177

fc2.bias f4 [300]
0	0x3d6c2c19	0.057659242
1	0x3de99b49	0.114065714
2	0x3d4002c6	0.046877645
3	0x3bbfaef6	0.0058497144
4	0x3d1672e1	0.03673065
5	0x3beba14e	0.00719086
6	0x3dcac5ef	0.09901034
7	0xbca3f217	-0.020012898
8	0x3d113684	0.03545238
9	0x3cd74ee4	0.026282735
10	0x3d748071	0.059692804
11	0xbb36cae0	-0.002789192
12	0x3d045744	0.032309785
13	0x3c92e5c1	0.01793182
14	0xbd732132	-0.05935783
15	0x3a816b4d	0.0009873897
16	0xbcde398c	-0.02712705
17	0x3d79a32b	0.060946625
18	0x3c879dc3	0.016554719
19	0x3d8a5a39	0.0675549
20	0x3c54f9e5	0.012999033
21	0xbc0a74e9	-0.008450725
22	0x3e3029eb	0.1720349
23	0x3dc193f8	0.09452051
24	0x3dde729f	0.10861706
25	0x3d89f129	0.06735451
26	0x3d96ddad	0.073665
27	0x3db4aa06	0.08821492
28	0x3e082a28	0.13297331
29	0xbda7d5e8	-0.08195096
30	0x3cef1983	0.02918697
31	0x3b451bdc	0.003007642
32	0x3d0bb10b	0.03410439
33	0x3aeda949	0.0018132116
34	0x3d8fe45b	0.07025977
35	0x3d072884	0.032997623
36	0xbc338944	-0.01095802
37	0x3d985a95	0.07439152
38	0xbbff25d2	-0.007786491
39	0x3d18c96e	0.037301473
40	0x3c0ad8ea	0.008474568
41	0x3aaf5ffc	0.0013380046
42	0x3dfeb3a0	0.124366045
43	0x3c8ae13e	0.016953107
44	0x3daf974e	0.08573781
45	0x3ddd9b68	0.10820657
46	0x3d78c86a	0.060738005
47	0x3dae9f09	0.08526427
48	0x3cf7a86b	0.030231675
49	0x3d19b469	0.03752557
50	0x3cb10842	0.021610383
51	0x3e1179c5	0.14206608
52	0x3d80e1f3	0.062930964
53	0x3d23015b	0.039796215
54	0x3d990e16	0.0747339
55	0x3d940867	0.07228165
56	0xb8aa365a	-8.1163555e-05
57	0x3d63b982	0.055596836
58	0x3de4876f	0.111586444
59	0x3cc790a6	0.024360966
60	0x3c9f76cc	0.019465826
61	0x3da17366	0.07883339
62	0x3d8d22f1	0.0689143
63	0x3c1d5cc9	0.009604641
64	0x3ca0c51c	0.01962524
65	0x3d6711aa	0.05641333
66	0xbd0745ea	-0.03302566
67	0x3b1ba109	0.0023747107
68	0xbc684b56	-0.014178118
69	0xbc4f9f75	-0.012672295
70	0xbd4b6f73	-0.049666833
71	0xbd612699	-0.05496845
72	0x3d917a7c	0.0710344
73	0x3db730aa	0.08944829
74	0x3d5099fc	0.0509281
75	0xbbbcd302	-0.005762459
76	0x3d8b1cf6	0.06792633
77	0xbc6f7dea	-0.014617423
78	0x3cbf86a9	0.02337964
79	0x3dbb008e	0.09130965
80	0xbb19d5b6	-0.002347333
81	0x3ca6a64f	0.020342974
82	0xbc964c87	-0.018347038
83	0x3d0e10da	0.03468404
84	0x3d595cef	0.053067144
85	0x3ddf163a	0.10892911
86	0xbce17399	-0.027520942
87	0x3d820d01	0.063501365
88	0x3dadcaef	0.08485972
89	0x3d142018	0.03616342
90	0xbc6e386f	-0.014539822
91	0x3bf8f4b1	0.007597529
92	0x3dbb8971	0.09157074
93	0x3dc463c6	0.09589343
94	0x3d82c0e5	0.06384448
95	0xbd214a73	-0.03937764
96	0xbd02d8d9	-0.031945083
97	0x3da1b48e	0.07895766
98	0x3c1ac4f5	0.009446372
99	0x3d5ccd1f	0.053906556
100	0x3d2f44e8	0.042790323
101	0x3ceed55b	0.02915447
102	0x3d2f2256	0.042757355
103	0xbbf45b7f	-0.0074571962
104	0x3d6ba599	0.057530973
105	0x3c674159	0.014114701
106	0x3d23b965	0.039971728
107	0xbce78985	-0.028263817
108	0xbb0829b6	-0.0020776815
109	0xbcc5fb38	-0.024167642
110	0x3cc236cf	0.023707775
111	0x3a54ea47	0.0008122068
112	0xbd0f45e7	-0.034978773
113	0x3ca72543	0.02040351
114	0x3d7cda99	0.06173191
115	0x3d0043c3	0.031314623
116	0xbc94ee21	-0.018179955
117	0x3dd349cb	0.10316809
118	0x3d423e0e	0.04742246
119	0xbb1c0872	-0.0023808745
120	0xbd4355e2	-0.047689326
121	0x3cc59d40	0.024122834
122	0xbc4b02c2	-0.012390794
123	0x3dc17503	0.09446146
124	0x3d91440e	0.070930585
125	0x3dbded2b	0.09273752
126	0x3d47e18e	0.04879909
127	0x3c81b768	0.015834525
128	0x3da71e8f	0.081601255
129	0x3cde6cb5	0.027151445
130	0x3d0f9c0d	0.03506093
131	0x3d90ea0e	0.070758924
132	0x3dde6f1e	0.10861038
133	0xbd8a688e	-0.067582235
134	0x3d0d4f35	0.034499366
135	0x3d2a63ea	0.04159919
136	0x3d1419fe	0.0361576
137	0x3d9057f7	0.07048028
138	0x3d545b10	0.051844656
139	0xbbdfdcb8	-0.0068317316
140	0x3d6daa3d	0.05802368
141	0x3dd5c014	0.104370266
142	0x3b754924	0.0037427628
143	0xbd842360	-0.0645206
144	0x3c02acd5	0.007975777
145	0x3d59931c	0.05311881
146	0x3d0a307f	0.033737656
147	0x3d9486c6	0.072522685
148	0x3d775735	0.0603859
149	0xbbc440ec	-0.0059891846
150	0x3cafdd51	0.021467837
151	0x3db94818	0.09046954
152	0x3e01aac2	0.12662795
153	0x3d3d963a	0.046285845
154	0xbc2e4838	-0.0106373355
155	0xbd53c1f3	-0.051698636
156	0x3d94ec01	0.07271577
157	0x3cf216ea	0.029551942
158	0x3d4e4ecb	0.05036811
159	0xbc354b0e	-0.011065258
160	0x3ca80933	0.020512199
161	0x3d7169e7	0.058938887
162	0x3dc7542b	0.09732851
163	0x3cb41613	0.021983182
164	0x3be4d5e7	0.006983507
165	0x3ceebf02	0.029143814
166	0x3d97a7c6	0.07405047
167	0x3ca79f50	0.020461708
168	0x3c96e218	0.018418357
169	0x3d839822	0.064255014
170	0xbb7150d2	-0.0036821854
171	0x3c9c851a	0.019106437
172	0x3d864574	0.06556216
173	0xbd3dfff0	-0.04638666
174	0x3d244c8a	0.040112056
175	0x3c7ea20d	0.015541566
176	0x3d857ccd	0.065179445
177	0x3c8753aa	0.016519386
178	0x3b89e6b7	0.0042084116
179	0x3d3bdf23	0.045867097
180	0x3da93f48	0.08264023
181	0x3d5deb09	0.054179225
182	0x3d29bc56	0.041439377
183	0x3d8428f5	0.064531244
184	0x3ca961f6	0.020676594
185	0x3d46f8f8	0.04857728
186	0x3ba7c8b0	0.0051203594
187	0x3c886197	0.016648097
188	0x3d24470f	0.04010683
189	0x3d0b1cdb	0.033963066
190	0x3da3a0c8	0.07989651
191	0xbdbaae9f	-0.091153376
192	0x3d32e5f6	0.04367634
193	0x3c85f4fb	0.016352167
194	0x3d18e6de	0.037329547
195	0x3cc11b84	0.02357269
196	0xbb6e270c	-0.0036339192
197	0xbcb4f003	-0.022087103
198	0xbc856398	-0.016282842
199	0x3d4d2741	0.050086264
200	0xbd586e31	-0.05283946
201	0x3c6e6b6c	0.014551979
202	0x3d2578f2	0.040398546
203	0x3ccb4074	0.024811007
204	0x3d157f80	0.036498547
205	0x3d35be38	0.04437086
206	0xbc71dea5	-0.014762555
207	0x3ceab239	0.028649436
208	0x3d24f801	0.040275577
209	0x3cbd7eb7	0.023131711
210	0x3d04b431	0.032398406
211	0xbc44ef38	-0.012019925
212	0x3d8a7ca5	0.06762055
213	0x3dd29a54	0.10283342
214	0x3c89b473	0.016809678
215	0x3d7e81a7	0.062135365
216	0x3d9cfcdd	0.07665417
217	0x3ccf41de	0.025299963
218	0x3dd8d3bc	0.1058726
219	0xbc5d8628	-0.013520755
220	0x3d7442a3	0.059633862
221	0x3e13649b	0.14393847
222	0x3d73db1d	0.059535135
223	0x3d643735	0.055716712
224	0xbd0a8129	-0.033814583
225	0x3cea3740	0.028590798
226	0x3deb0106	0.114748046
227	0x3d700161	0.058595065
228	0x3d66d3b0	0.056354225
229	0x3d5e7e0d	0.05431943
230	0x3dcb12d4	0.099157006
231	0x3cb13e2d	0.021636093
232	0x3cb6f365	0.022332856
233	0x3cf38e9d	0.02973109
234	0x3d02c598	0.03192672
235	0x3d1b40e3	0.037903678
236	0x3cb0daae	0.02158865
237	0x3d66c74d	0.05634241
238	0x3c47bc6e	0.012190921
239	0x3d41fb31	0.047358695
240	0x3d6b6121	0.057465676
241	0xbcf56dc0	-0.02995956
242	0xbd06229e	-0.032747857
243	0xbdab8528	-0.08375007
244	0x3ca4a68a	0.020098943
245	0x3c9c39b0	0.019070476
246	0x3d4ca087	0.04995778
247	0x3d79984e	0.060936265
248	0x3c966f07	0.018363489
249	0x3d90dd72	0.07073487
250	0x3daa2e51	0.083096154
251	0xbd84a91c	-0.064775676
252	0x3daff39b	0.08591386
253	0x3de69e56	0.11260669
254	0xbd0c1464	-0.034199134
255	0x3d6f35df	0.058400985

fc3.weight f4 [2, 300]
0	0x3df42d0c	0.119226545
1	0xbe35a76d	-0.17739649
2	0x3c058bd7	0.008151016
3	0x3e485696	0.1956428
4	0xbe1006aa	-0.14065042
5	0x3e459d42	0.1929827
6	0xbe07a387	-0.13245974
7	0xbd91d4c6	-0.071206614
8	0xbe1f9838	-0.1558541
9	0x3da72bc0	0.081626415
10	0x3d98c0c1	0.0745864
11	0xbb085c20	-0.0020806864
12	0x3dbc8ad6	0.09206168
13	0xbd8cefed	-0.068817
14	0xbe937b50	-0.28805017
15	0xbdecf24b	-0.11569651
16	0xbe0a9fc1	-0.13537504
17	0x3c9910f6	0.018684845
18	0xbd8522bc	-0.06500766
19	0xbd650981	-0.055917267
20	0xbe0d8432	-0.1381996
21	0xbe47931a	-0.19489709
22	0x3bb9f883	0.005675377
23	0xbe3483db	-0.17628424
24	0x3d8bd44d	0.068276025
25	0x3dcb7359	0.0993411
26	0xbdda5424	-0.1066058
27	0xbdbb5f04	-0.09148982
28	0x3e048687	0.12941943
29	0x3e7a00da	0.24414387
30	0x3d1f7294	0.03892763
31	0x3d46f90f	0.048577365
32	0xbcbfb2cf	-0.023400692
33	0x3e479625	0.1949087
34	0x3dcd69cf	0.10029947
35	0xbdaeabe7	-0.085288815
36	0xbe22c5db	-0.15895788
37	0x3e0d4cb2	0.13798788
38	0xbe567eaf	-0.20946763
39	0x3b2810ba	0.0025644735
40	0x3e124cb9	0.1428708
41	0xbcda0185	-0.026612053
42	0x3e878e26	0.26475638
43	0xbcd071ef	-0.025444953
44	0xbd619650	-0.05507499
45	0x3d8c35f6	0.0684623
46	0xbd56324a	-0.052294053
47	0x3e8a5b6d	0.27022877
48	0xbd817aa1	-0.06322218
49	0x3d83270d	0.06403933
50	0xbdac9799	-0.084273525
51	0x3dc4a652	0.096020356
52	0xbd576141	-0.052582983
53	0x3dd5c39b	0.104376994
54	0x3cc68e48	0.024237767
55	0x3d363590	0.044484675
56	0x3e474d23	0.19463019
57	0x3c91f625	0.017817566
58	0xbc48894e	-0.012239767
59	0xbe4b7d7e	-0.1987209
60	0x3d497ae7	0.049189474
61	0xbe008f1a	-0.12554589
62	0xbe5b9f97	-0.21447597
63	0x3d46e712	0.04856021
64	0x3e06e7fb	0.13174431
65	0xbe251e95	-0.16124947
66	0xbe387fe3	-0.18017535
67	0x3dcd6369	0.100287266
68	0x3e691a09	0.22763838
69	0x3e058f0b	0.13042848
70	0xbe4a88de	-0.19778773
71	0xbcef7665	-0.02923126
72	0x3d462ee2	0.048384555
73	0x3e01a63e	0.12661073
74	0x3db469c2	0.08809234
75	0xbd907d69	-0.0705517
76	0x3d157ea5	0.03649773
77	0x3c11a211	0.008888737
78	0x3d4da7bc	0.050208792
79	0xbd1ed9e5	-0.03878202
80	0xbe1e217a	-0.15442458
81	0xbe61048f	-0.21974395
82	0x3e6904bb	0.22755711
83	0x3dd8a52d	0.1057838
84	0x3dd38c29	0.10329468
85	0xba5b4b71	-0.00083654287
86	0xbe0f358b	-0.13985269
87	0xbdd35ef2	-0.10320844
88	0x3d087d98	0.0333229
89	0x3da1abdc	0.07894108
90	0xbdf45da5	-0.11931924
91	0x3da65579	0.08121771
92	0xbd372f99	-0.044723127
93	0xbd06a03b	-0.03286765
94	0x3d704643	0.058660757
95	0xbe03e571	-0.12880494
96	0xbe5d7d71	-0.21629883
97	0xbda1eaca	-0.079061106
98	0x3d9ec9c1	0.07753325
99	0xbdc275a2	-0.09495093
100	0x3be74ad3	0.0070584803
101	0xbdf6d4bd	-0.12052295
102	0x3da39504	0.07987407
103	0x3cd2ef2e	0.025748815
104	0x3d46675a	0.048438407
105	0x3e283334	0.16425782
106	0xbe6e7430	-0.2328651
107	0x3dfc8ab4	0.12331143
108	0xbd97ccac	-0.07412085
109	0xbe8110f8	-0.2520826
110	0xbdd9f57d	-0.10642526
111	0x3e0fcf94	0.14044029
112	0xbe82f395	-0.25576463
113	0x3d490dac	0.049085304
114	0x3dcf59de	0.10124563
115	0xbd89a46e	-0.067208156
116	0xbe49d82c	-0.1971137
117	0xbd515ebc	-0.051115736
118	0xbdb4a564	-0.08820608
119	0x3d90f042	0.070770755
120	0xbe81ece9	-0.2537606
121	0xbca07eec	-0.019591771
122	0x3e13367b	0.14376251
123	0x3d1d642a	0.038425602
124	0x3daaeb0f	0.08345615
125	0x3be2f9ae	0.006926737
126	0x3da128fd	0.07869146
127	0x3d69f5fb	0.05711935
128	0x3c8fec99	0.017568873
129	0xbdf82363	-0.121161245
130	0x3e39010e	0.18066809
131	0xbdb4342f	-0.08799016
132	0x3ddefa8f	0.10887634
133	0x3e380655	0.17971165
134	0x3d36db47	0.044642713
135	0xbe5da5fb	-0.21645348
136	0xbda9da8e	-0.08293639
137	0xbd96d070	-0.07363975
138	0xbe42c95d	-0.19022126
139	0x3dad201c	0.0845339
140	0x3c4b2b72	0.012400495
141	0xbd075f53	-0.033049893
142	0xbe244220	-0.1604085
143	0xbe92b56b	-0.28654036
144	0xbe3e31aa	-0.18573633
145	0xbd44296c	-0.047891065
146	0x3e6041af	0.21900056
147	0x3d60ea38	0.05491087
148	0x3ca2e425	0.019884178
149	0xbe8a56d4	-0.2701937
150	0xbdb13281	-0.08652211
151	0x3dfab886	0.12242226
152	0xbd8277d9	-0.063705154
153	0xbd8b2978	-0.06795019
154	0xbd5e4f19	-0.054274652
155	0xbe8e6786	-0.27813357
156	0xbdc9c75f	-0.0985248
157	0xbb14da1f	-0.0022713018
158	0x3dd50a47	0.10402351
159	0xbd0ba3be	-0.034091704
160	0xbdc98db7	-0.09841483
161	0xbcf94ec6	-0.03043307
162	0xbe2ccbb0	-0.16874576
163	0xbdd63d41	-0.10460902
164	0x3d3b0884	0.045662418
165	0xbddb876f	-0.10719191
166	0xbd13206b	-0.035919588
167	0x3e381a4d	0.17978783
168	0xbe474f1b	-0.1946377
169	0xbc1053a5	-0.008809005
170	0xba22a7e1	-0.00062048255
171	0x3d6eda1e	0.05831348
172	0x3dda4ace	0.10658799
173	0xbe7b4b82	-0.24540523
174	0xbdad0c1a	-0.08449574
175	0x3d938223	0.07202556
176	0xbbb72945	-0.0055896365
177	0xbd6082f7	-0.054812398
178	0xbe1a8233	-0.1508873
179	0xbd71cb36	-0.059031688
180	0x3dc0da00	0.0941658
181	0xbe4288d1	-0.18997504
182	0x3da942b0	0.08264673
183	0xbe51c9fb	-0.20487206
184	0x3df1d7c2	0.11808731
185	0xbd7bf62e	-0.061514072
186	0xbe61826a	-0.22022405
187	0xbd9905e6	-0.07471828
188	0xbe27f5cc	-0.16402358
189	0xbd75b67e	-0.05998849
190	0x3cb9a75d	0.022662813
191	0xbe1f84b5	-0.15577967
192	0xbe91cac2	-0.28475004
193	0xbdae5839	-0.08512921
194	0x3dd1dd5c	0.10247299
195	0x3dd31ed4	0.103086144
196	0x3e19ec21	0.15031482
197	0xbe6e356c	-0.23262566
198	0x3e246af8	0.1605643
199	0x3daa2f9e	0.083098635
200	0xbea32af7	-0.31868717
201	0xbe57b68a	-0.21065727
202	0xbc0693f4	-0.008213986
203	0xbc9c0c9c	-0.019048981
204	0xbd83170f	-0.064008825
205	0x3df4a365	0.119452275
206	0xbe059560	-0.13045263
207	0xbde683c1	-0.11255599
208	0x3dc53fca	0.096313074
209	0xbe0edfbd	-0.13952537
210	0x3d19d613	0.037557673
211	0xbda076a8	-0.07835132
212	0x3daa523f	0.083164684
213	0xbe13cb96	-0.1443313
214	0x3d4be0c7	0.04977491
215	0x3e733165	0.23749311
216	0xbd83d66f	-0.06437384
217	0xbe23244c	-0.15931815
218	0x3b0d80c4	0.0021591643
219	0x3d81b4bb	0.063333
220	0xbd315856	-0.043297134
221	0xbd0a8ac7	-0.033823755
222	0xbda73594	-0.08164516
223	0x3e118c6c	0.14213723
224	0xbe114794	-0.14187461
225	0x3d3f4d5f	0.046704646
226	0xbc20c3ea	-0.009812335
227	0xbdfcebc8	-0.12349659
228	0xbde36fb8	-0.11105293
229	0xbd8b6a47	-0.0680738
230	0xbd9dd9e9	-0.07707579
231	0xbe11d3c4	-0.14240938
232	0x3e27fca3	0.16404967
233	0xbe72ce96	-0.23711619
234	0xbcd36341	-0.025804164
235	0xbcea883c	-0.028629415
236	0xbe2f9029	-0.17144836
237	0x3d0c2a8e	0.03422027
238	0xbc13b13c	-0.009014424
239	0x3d654235	0.055971343
240	0xbdbbd12d	-0.091707565
241	0xbe9b8657	-0.3037593
242	0xbe79a6d9	-0.24380054
243	0xbe4b31cd	-0.19843216
244	0xbe11852e	-0.1421096
245	0x3dc83627	0.09775954
246	0xbe0af7e7	-0.1357113
247	0xbdd8028b	-0.1054736
248	0x3e1c9ee6	0.1529499
249	0x3d645b49	0.05575112
250	0x3d10ba0d	0.03533368
251	0xbe82ec18	-0.2557075
252	0xbd18a1bf	-0.037263628
253	0xbaa5f993	-0.001266288
254	0x3e4ca882	0.19986156
255	0x3e484acf	0.19559787

fc3.bias f4 [2]
0	0x3d3651c5	0.044511575
1	0xbcdaa81a	-0.026691485

bn1.weight f4 [400]
0	0x3eb08cd4	0.34482443
1	0x3e8f212c	0.27954996
2	0x3f800230	1.0000668
3	0x3f57d7dc	0.8431375
4	0x3f3850ee	0.7199849
5	0x3ef6ebcd	0.48226777
6	0x3f43e194	0.7651608
7	0x3f699451	0.9124194
8	0x3ef1eb9b	0.47250065
9	0x3e453e69	0.19262089
10	0x3f3516b9	0.707378
11	0x3ec7e6dd	0.39043322
12	0x3f123dcb	0.5712554
13	0x3ed98be0	0.4248953
14	0x3f5bdbcb	0.8588225
15	0x3f0158cf	0.50526136
16	0x3f860757	1.047099
17	0x3f16c177	0.58888954
18	0x3f6cdef2	0.9252769
19	0x3ed27642	0.4110585
20	0x3f83e0ed	1.0303017
21	0x3e4d3dbd	0.20043083
22	0x3f63da46	0.89004934
23	0x3f39641e	0.7241839
24	0x3e0b3c12	0.13597134
25	0x3f68bcdf	0.90913194
26	0x3e9e6af3	0.3094097
27	0x3ea68133	0.32520446
28	0x3e8ccf1f	0.2750177
29	0x3e90a50b	0.28250918
30	0x3eddcaf5	0.43318906
31	0x3f83e329	1.0303699
32	0x3f19e6c6	0.6011776
33	0x3f5e9ead	0.8696087
34	0x3f3ae18a	0.73000395
35	0x3f5a8bab	0.85369366
36	0x3ebb84b8	0.36624694
37	0x3e31a88b	0.1734945
38	0x3e7163b7	0.23573194
39	0x3e8064ea	0.2507699
40	0x3f825d25	1.0184675
41	0x3f2044e2	0.62605107
42	0x3edd7b4e	0.43258137
43	0x3f55ca56	0.83511865
44	0x3f7164b7	0.94294304
45	0x3e76b217	0.24091373
46	0x3f80b90f	1.0056475
47	0x3f2543c6	0.6455654
48	0x3eb3d4e7	0.3512337
49	0x3ee9aaa6	0.45638007
50	0x3f00fd1c	0.50386214
51	0x3ec4e0ad	0.38452664
52	0x3ed76d81	0.42075732
53	0x3f74fadf	0.956953
54	0x3f846d7e	1.0345914
55	0x3f249554	0.64290357
56	0x3f3ab64f	0.7293443
57	0x3e73741a	0.23774758
58	0x3e8afdf0	0.27146864
59	0x3f367c94	0.7128384
60	0x3f85f723	1.0466045
61	0x3f76d045	0.96411544
62	0x3e701b29	0.23447861
63	0x3f452fa4	0.7702582
64	0x3e2a47ba	0.16628924
65	0x3ea100ae	0.3144583
66	0x3e8e66c0	0.27812767
67	0x3ebf7697	0.37395164
68	0x3f4fd532	0.81184685
69	0x3f82b1cd	1.021051
70	0x3e77c436	0.24195942
71	0x3f1d1a22	0.61368
72	0x3f12757c	0.57210517
73	0x3ef21a18	0.47285533
74	0x3f487fd7	0.7832007
75	0x3f836ee6	1.0268219
76	0x3f0658cd	0.5247925
77	0x3f88af67	1.0678529
78	0x3ee57717	0.4481742
79	0x3f28f06d	0.6599186
80	0x3ee1d29d	0.44105998
81	0x3f25e43b	0.6480138
82	0x3f1f266e	0.62168014
83	0x3f16e7ff	0.5894775
84	0x3ea9ff88	0.33202767
85	0x3edae948	0.42756104
86	0x3f60248e	0.8755578
87	0x3f5311c3	0.8244898
88	0x3f1d5e2c	0.6147182
89	0x3f04766e	0.5174321
90	0x3f846c04	1.0345464
91	0x3ec6688b	0.38751635
92	0x3f5ea6dd	0.86973363
93	0x3f781a2b	0.9691493
94	0x3eb6f806	0.35736102
95	0x3f0020df	0.5005016
96	0x3e6f9345	0.23396023
97	0x3ed1bbcc	0.4096359
98	0x3f859446	1.0435874
99	0x3e10ff16	0.14159808
100	0x3e9d44e8	0.30716634
101	0x3f0e69e9	0.55630356
102	0x3f599a31	0.850009
103	0x3ea501bd	0.3222789
104	0x3f184aff	0.59489435
105	0x3ee96bb3	0.4558998
106	0x3e914284	0.2837106
107	0x3f8158a4	1.0105176
108	0x3f511493	0.8167202
109	0x3f492c61	0.7858334
110	0x3f64c1bf	0.89358133
111	0x3ea3cf63	0.3199416
112	0x3ea8d217	0.32972786
113	0x3f318d84	0.6935656
114	0x3ebca8d1	0.36847547
115	0x3f5e3050	0.8679247
116	0x3e89dfe5	0.2692863
117	0x3f46670d	0.77500993
118	0x3e852d93	0.26011333
119	0x3f6d9987	0.9281239
120	0x3f86da73	1.0535415
121	0x3f3c48bc	0.73548484
122	0x3ee0bd20	0.4389429
123	0x3f98f2b7	1.1949071
124	0x3ede6fb0	0.43444586
125	0x3f77439c	0.9658754
126	0x3eba03c0	0.36330986
127	0x3f8a61c9	1.0811092
128	0x3f3a5a81	0.7279435
129	0x3ebdee80	0.37096024
130	0x3ea0bf4f	0.31395957
131	0x3e3a07a9	0.18166985
132	0x3f41c30d	0.7568825
133	0x3edbc00f	0.42919967
134	0x3f129af1	0.5726767
135	0x3f4292d4	0.7600529
136	0x3f058b47	0.52165645
137	0x3ee3ae92	0.44469124
138	0x3f394a7f	0.72379297
139	0x3f2e6f0e	0.68138206
140	0x3f6faec7	0.93626064
141	0x3ea91c97	0.33029625
142	0x3f0a79a9	0.5409189
143	0x3e05bd7a	0.13060561
144	0x3e66710d	0.22504063
145	0x3f42b76e	0.7606114
146	0x3f0578ab	0.5213725
147	0x3eaf520d	0.34242287
148	0x3e82c816	0.25543278
149	0x3f8517d1	1.0397893
150	0x3efd86c5	0.49516883
151	0x3eb97496	0.3622176
152	0x3f3ab3a7	0.7293038
153	0x3ebcccf6	0.36875123
154	0x3f316455	0.6929372
155	0x3f0f4b98	0.5597472
156	0x3f58b282	0.8464738
157	0x3e2afbe4	0.16697651
158	0x3f02cb64	0.510916
159	0x3f884b7c	1.0648036
160	0x3f86584f	1.04957
161	0x3f7b42bf	0.9814872
162	0x3eacd0c7	0.33753034
163	0x3f80d291	1.006426
164	0x3f0ea98f	0.55727476
165	0x3f580374	0.8438027
166	0x3eb50558	0.3535564
167	0x3f24e34d	0.64409333
168	0x3eb723b1	0.35769418
169	0x3f65515f	0.8957729
170	0x3f804b73	1.0023025
171	0x3f25653c	0.64607596
172	0x3f72f642	0.9490701
173	0x3e3746ec	0.17898148
174	0x3eb81921	0.35956672
175	0x3f35fa23	0.71084803
176	0x3eae1567	0.34000704
177	0x3f823f73	1.0175613
178	0x3e382549	0.17982973
179	0x3f385841	0.72009665
180	0x3f031a4a	0.5121199
181	0x3e0c4ab9	0.1370038
182	0x3f1b2e42	0.6061746
183	0x3f39aba3	0.7252752
184	0x3f1a16e4	0.6019118
185	0x3d59376c	0.05303137
186	0x3f29ab73	0.66277236
187	0x3f656f55	0.89623004
188	0x3f84c683	1.0373081
189	0x3e6a87d8	0.22903383
190	0x3f84fb3e	1.0389173
191	0x3f7e64a4	0.99372315
192	0x3ebade7f	0.36497876
193	0x3f69ff63	0.91405314
194	0x3eb7380b	0.35784945
195	0x3e3bdbd6	0.1834558
196	0x3f2fd786	0.6868824
197	0x3ec4203f	0.38305852
198	0x3e493e6a	0.19652715
199	0xbde3afe6	-0.11117534
200	0x3e5cb504	0.21553427
201	0x3f4545ed	0.77059823
202	0x3f5566eb	0.83360165
203	0x3f36d7f2	0.71423256
204	0x3f336cb5	0.7008775
205	0x3ec052b8	0.3756311
206	0x3e5fd2c4	0.21857744
207	0x3f66ea88	0.90201616
208	0x3eaab5b1	0.33341745
209	0x3e550b03	0.20804982
210	0x3f4f0498	0.80866385
211	0x3f060a05	0.5235904
212	0x3f858499	1.043109
213	0x3f85343e	1.0406568
214	0x3ea47ba3	0.32125577
215	0x3f552354	0.8325703
216	0x3ea18df4	0.31553614
217	0x3ecc80cf	0.39942023
218	0x3f2b384d	0.66882783
219	0x3f8e78fb	1.113067
220	0x3e3ee8b6	0.1864346
221	0x3f469a82	0.7757951
222	0x3f4925d9	0.78573376
223	0x3e662830	0.22476268
224	0x3ec08840	0.3760395
225	0x3e626045	0.22107036
226	0x3f08b9b8	0.53408384
227	0x3ea15689	0.31511334
228	0x3ee0afc3	0.43884096
229	0x3e9d37d4	0.30706656
230	0x3e1914df	0.14949368
231	0x3f669e7f	0.90085596
232	0x3f32e9b6	0.69887865
233	0x3f695c6b	0.91156644
234	0x3f3def09	0.74192864
235	0x3f36dd33	0.71431273
236	0xbe2ddfa9	-0.16979851
237	0x3f49b0e7	0.78785557
238	0x3f7537b4	0.9578812
239	0x3f7823e1	0.96929747
240	0x3ec47616	0.38371342
241	0x3ecab1ae	0.39588684
242	0x3f32794d	0.6971634
243	0x3f5f4f16	0.8723005
244	0x3f89acd8	1.0755873
245	0x3ebcf165	0.3690292
246	0x3de320a0	0.11090207
247	0x3f84f7fc	1.0388179
248	0x3f5eef5c	0.87083983
249	0x3e9f97f1	0.3117061
250	0x3f4a95f1	0.7913504
251	0x3df95ea6	0.12176256
252	0x3e2ba235	0.16761096
253	0x3f16b3a6	0.5886787
254	0x3f6dd83b	0.92908067
255	0x3f45b1d7	0.7722449

bn1.bias f4 [400]
0	0x3cb5eb5a	0.022206951
1	0xbd15a806	-0.036537193
2	0xbbd5ed3c	-0.0065285247
3	0x3c3869c6	0.011255687
4	0x3d44d6a6	0.048056267
5	0xbd25d326	-0.04048457
6	0xbd2a9fa5	-0.041656155
7	0xbc39476f	-0.011308535
8	0x3caf20d7	0.021377964
9	0xbd6364f4	-0.0555162
10	0xbd3c51d5	-0.04597648
11	0xbbe033a4	-0.0068420935
12	0xbd418045	-0.047241468
13	0xbc167b50	-0.009184673
14	0x3c19ca9e	0.009386687
15	0x3bc1ab55	0.005910317
16	0xbd38be08	-0.045103103
17	0xbcec3515	-0.028833905
18	0xbcb78607	-0.022402776
19	0x3cc7cc6f	0.024389474
20	0xbce30c20	-0.027715743
21	0xbdba73f4	-0.091041476
22	0x3c110c0a	0.008852968
23	0xbb9823c8	-0.0046429373
24	0xbd40c45a	-0.047062255
25	0xbd2f4751	-0.042792622
26	0xbc9c827f	-0.019105194
27	0x3d20c7c9	0.03925303
28	0xbd0a1458	-0.033710808
29	0xbd9c9d90	-0.0764724
30	0x3a8aad10	0.0010580141
31	0xbcf4b58c	-0.029871725
32	0xbcf7d613	-0.030253446
33	0xbda02c8e	-0.07820998
34	0xbb3bf427	-0.0028679462
35	0xbd394a8c	-0.04523711
36	0x3d481928	0.048852116
37	0xbd77cd9d	-0.060498822
38	0xbd159aed	-0.036524702
39	0x3d273b2d	0.04082792
40	0xbd068b38	-0.032847613
41	0xbd537bb1	-0.051631633
42	0xb9397451	-0.00017686306
43	0xbd4ee459	-0.050510738
44	0x3bd6c807	0.006554607
45	0xbd4c9027	-0.049942162
46	0xbd1acee8	-0.037794977
47	0x3cd14572	0.02554581
48	0x3ce3e9db	0.027821472
49	0xbd3e0af8	-0.04639718
50	0xbb4b6506	-0.0031035556
51	0xbab0d071	-0.0013489855
52	0x3d8ae5ed	0.06782136
53	0x3cb39028	0.021919325
54	0x3d8d8817	0.06910723
55	0x3d589e1c	0.05288516
56	0x3cd478a1	0.025936427
57	0xbd9ed8b3	-0.07756176
58	0xbc1d664f	-0.009606912
59	0xbc45da53	-0.012075978
60	0x3c24007f	0.010009884
61	0xbcef2418	-0.029192016
62	0x3caf8003	0.021423345
63	0xbb80ca53	-0.003930369
64	0x3c25eefb	0.010127778
65	0x3c78108f	0.015140667
66	0xbcb3d95b	-0.02195423
67	0xbc2378e5	-0.009977554
68	0x3c00f434	0.007870723
69	0xbd2f5236	-0.04280301
70	0xbd5e2f08	-0.05424407
71	0xbcd80ad0	-0.026372343
72	0x3ce1626c	0.027512752
73	0x3c183a5d	0.009291259
74	0xbd01c6f6	-0.031683885
75	0xbd3cf079	-0.04612777
76	0xbd530766	-0.051520728
77	0xbc8f090f	-0.017460374
78	0xbd4e8461	-0.050419215
79	0x3cfd0cb3	0.030889845
80	0xbc2285df	-0.009919613
81	0x3ab5ede2	0.0013880099
82	0x3d3cb0ab	0.04606692
83	0xbd21f160	-0.039536834
84	0xbcea38b5	-0.028591493
85	0xbd6e823a	-0.058229662
86	0x3c73a61d	0.014871147
87	0xbd154e2a	-0.036451496
88	0x3ca5f24e	0.020257141
89	0x3c16daf7	0.009207479
90	0xbcc6f9d7	-0.024289055
91	0xbc29d55a	-0.010365808
92	0xbd524aa8	-0.05134073
93	0x3d1f0583	0.038823616
94	0x3adea43d	0.0016986203
95	0xbd078da7	-0.033094075
96	0xbc9dd3d6	-0.01926605
97	0xbd04bd1f	-0.032406922
98	0xbcbb1d08	-0.022840992
99	0x3b181c9a	0.0023210407
100	0xba314e4a	-0.000676368
101	0xbb67c6c3	-0.0035366274
102	0xbd8a0e63	-0.06741025
103	0x3d1e3464	0.038624182
104	0xbc43e2f9	-0.01195597
105	0xbd2ea2d5	-0.042635757
106	0x3c9ee954	0.019398369
107	0xbd2cc95b	-0.042184215
108	0xbce896e0	-0.028392255
109	0xbc5c396d	-0.013441426
110	0x39975f64	0.00028872036
111	0xbd50fd54	-0.051022843
112	0xbd14bcb9	-0.036312792
113	0xbd7aa41d	-0.061191667
114	0xbd3be8e0	-0.045876384
115	0xbc960f18	-0.018317744
116	0xbd39186a	-0.0451893
117	0xbc175be3	-0.009238216
118	0xbd722a43	-0.059122335
119	0xbcbc2980	-0.022969007
120	0xbcacfab7	-0.021115644
121	0xbbbfea6c	-0.0058568027
122	0xbd960651	-0.073254235
123	0xbd295122	-0.04133714
124	0xbc83f2c0	-0.016106963
125	0xbb8e299d	-0.004338457
126	0xbd535147	-0.051591184
127	0xbcff02e4	-0.031129308
128	0xbdabd79f	-0.08390736
129	0x3d67c241	0.05658174
130	0xbd89a8b1	-0.067216285
131	0xbdb87d2d	-0.090082504
132	0x3cf8dce6	0.03037877
133	0xbc8e5890	-0.017376214
134	0xbd27e7bc	-0.040992483
135	0x3c84b378	0.016198859
136	0xbd147ec7	-0.036253717
137	0xbca2999f	-0.019848643
138	0xbd2d7c8d	-0.04235511
139	0xbd191e54	-0.03738244
140	0xbd574263	-0.052553546
141	0x3d3edd2e	0.046597652
142	0xbcdb2e52	-0.026755486
143	0x3dea01e5	0.114261426
144	0xbda1a58e	-0.07892905
145	0xbcbcda6a	-0.023053367
146	0xbbc644d5	-0.006050686
147	0x3abf298e	0.0014584528
148	0x3d1e3f4c	0.038634583
149	0x3d18168f	0.03713089
150	0x3d1ab7d3	0.037772965
151	0x3d16f668	0.036856085
152	0x3cd431e6	0.0259027
153	0xbd5c7b84	-0.05382873
154	0x3cb9beb1	0.022673937
155	0xbcfe64b5	-0.03105388
156	0xbb4e4567	-0.0031474472
157	0xbdba851f	-0.09107422
158	0xbc5b1238	-0.013371043
159	0xbd4913da	-0.049091198
160	0x3cd96975	0.026539544
161	0xb6cf1669	-6.1716896e-06
162	0xbd230551	-0.039799992
163	0xbb10723d	-0.0022040748
164	0x3d05932c	0.032611057
165	0x39f6db77	0.0004708429
166	0x3bd0154f	0.0063501964
167	0xbcd3dfa2	-0.025863472
168	0xbd262698	-0.04056415
169	0xbcdfe78c	-0.02733209
170	0xbca93d84	-0.020659216
171	0xbc9bde6c	-0.019026957
172	0xbd0aaa25	-0.03385367
173	0x3cc2b47f	0.023767708
174	0x3d3f34b3	0.046681117
175	0x3d0e2c65	0.034710307
176	0xbd7b9fe6	-0.061431788
177	0x3d179f28	0.037017018
178	0xbca56af6	-0.020192605
179	0x3d8ccd42	0.06875087
180	0xbc8650e3	-0.016395992
181	0x3d19b900	0.037529945
182	0xbcbe3f0d	-0.023223424
183	0xbd1fc873	-0.039009523
184	0x3b488d12	0.0030601663
185	0x3d3f0c6a	0.0466427
186	0x3cb3f763	0.02196855
187	0xbb7b76cd	-0.0038370371
188	0x3d2ca75c	0.042151794
189	0x3ca3a963	0.01997823
190	0x3c899afc	0.016797535
191	0x3ca39baf	0.019971697
192	0x3bd93c8e	0.006629533
193	0xbc990295	-0.018677989
194	0x3d0b9c7d	0.034084786
195	0x3d688d77	0.056775536
196	0x3c2a338d	0.010388267
197	0xbd0f1365	-0.034930605
198	0x3cdc71c5	0.026909718
199	0xbdd888d7	-0.10572975
200	0xbde0e335	-0.10980836
201	0x3a92c00b	0.0011196149
202	0x3c8ce1f1	0.017197581
203	0xbcc7ae99	-0.024375247
204	0x3d5b738b	0.053576987
205	0xbc9c7bf3	-0.019102072
206	0x3da53ab9	0.08067841
207	0x3d49b360	0.04924333
208	0x3d72c5b6	0.059270583
209	0xbdab47c1	-0.08363295
210	0x391b9323	0.00014836765
211	0xbd267fcb	-0.040649217
212	0xbcda697a	-0.026661623
213	0x3cf575dd	0.029963428
214	0x3d25b68b	0.04045729
215	0xbcbe266e	-0.023211684
216	0x3d6acd69	0.0573248
217	0x3cf56e05	0.029959688
218	0xbd2bdc17	-0.04195794
219	0x3cb09c28	0.021558836
220	0x3aa34e8a	0.001245932
221	0x3b323658	0.0027193036
222	0xbd292af2	-0.04130072
223	0x3a1d2532	0.0005994617
224	0x3d05cb04	0.032664314
225	0x3d3817f2	0.04494471
226	0x3cbc7da9	0.023009138
227	0xbd3ffda5	-0.046872754
228	0xbc59b52f	-0.013287826
229	0x3b0d024c	0.0021516262
230	0xbd43beb5	-0.047789294
231	0xbd0611bc	-0.032731757
232	0xbcd4ca47	-0.02597536
233	0x3c2febee	0.010737402
234	0x3d33f31c	0.04393302
235	0xbd4fe021	-0.050750855
236	0xbd0cb7ee	-0.034355097
237	0x3d2d7829	0.04235092
238	0xbc59b731	-0.013288305
239	0x3c83a78e	0.016071107
240	0xbd927de9	-0.07152922
241	0xbd0ccb4f	-0.034373578
242	0x3cbc7872	0.023006652
243	0x3bca5d55	0.006175677
244	0x3d195897	0.037438
245	0xbaa9a434	-0.0012942613
246	0x3cf76e32	0.030203912
247	0xbcc6ae00	-0.024252892
248	0xbbbe7de5	-0.0058133476
249	0x3c177f9d	0.009246734
250	0x3cf45580	0.029825926
251	0xbd472757	-0.0486215
252	0x3b8d2402	0.004307271
253	0xbd4f4fbf	-0.05061316
254	0xbc54da6c	-0.012991529
255	0x3d05c0c9	0.032654557
