critic_target_0.pt (torch_old, 575046 bytes, 9 tensors)

fc1.weight f4 [400, 52]
-0.17010354 0.9999082 0.040445887 0.14100397 0.18960181 0.12041483 -0.018397707 0.13569216
0.18866383 1.1267865 0.011035393 -0.0761129 0.110731244 0.51056314 -0.003391733 -0.0746066
0.5669771 1.0692548 -0.013037503 -0.078894705 0.047283262 0.8609991 -0.0048089754 -0.08031613
0.0227797 0.16905172 0.014977172 0.006381303 -0.17725396 0.06576994 -0.03526829 0.06349172
0.21844524 0.26697 -0.032508843 0.009514459 -0.12011994 0.45736697 -0.004247045 0.01397475
0.33161297 0.39691162 -0.008782566 0.0035395152 -0.028291497 0.80870044 -0.014178535 -0.018966768
3.1301553 -0.09044682 0.7422039 -0.68533623 0.035821706 0.5746427 -0.01586211 0.07469613
-0.6910578 0.15696594 0.014842222 0.04737961 0.13559398 1.0947295 0.038661808 0.2973192
-1.8881269 -0.1407114 -0.0010967655 0.26205945 0.07282805 1.1321615 0.028327614 0.14877722
-1.405833 -0.087135054 -0.030765649 0.11022122 -0.039712563 -0.22461763 0.017138144 -0.012228379
0.6982673 0.096906245 -0.0103477435 0.05296535 0.022293335 -0.15907714 0.03525621 -0.011168424
1.866275 -0.13680425 -0.018815108 0.054211956 0.11358612 -0.37128597 -0.066119365 -0.07039351
1.3795313 -0.12340343 0.030269556 -0.119390935 0.49684927 0.30876502 -0.18880658 0.11609112
-0.27352327 0.554305 0.0125773 -0.05726906 -0.049996022 0.06529091 0.002792716 -0.029191708
-0.5083599 0.4787505 -0.02567409 -0.019724367 0.21641465 -0.2604583 -0.0075037563 0.022909563
-0.7767095 0.3812908 -0.03348686 0.056672465 0.7437329 -1.1757902 -0.022196637 0.073353246
0.07290942 0.00078644766 -0.009747911 -0.012533653 0.09016482 0.060287 0.011931201 0.017037418
0.10121568 -0.026283842 -0.0066574416 0.009061963 -0.22351246 -0.30788076 0.01992729 0.07454599
-0.13880526 -0.022280322 0.008637882 0.059956163 -0.74767697 -1.1885251 -0.0034332103 0.07627751
0.019008597 -0.06411162 -0.52586967 0.33288282 0.16631347 0.29747742 0.037154682 -0.32637668
0.2689634 -0.10669942 0.062890984 -0.32705918 0.08198863 0.124497294 0.12754145 -0.107274406
0.24069718 -0.16749583 0.05881124 -0.090806484 0.3088066 0.19163734 -0.06772415 0.20570649
0.44758612 -0.60175866 -0.04454927 0.20368789 0.60124195 1.3048099 0.04957339 0.15788873
-0.349984 -0.13845311 0.058036562 0.08145487 0.34842765 1.1507988 -0.046966475 -0.08008957
-0.30719715 -0.1640192 -0.050954342 -0.06339139 0.3727105 1.2489866 -0.12853795 0.485965
-0.49520734 -0.6203888 -0.124504656 0.5410221 -0.25373212 -1.0569972 -0.9824609 -0.3414522
0.11263635 -0.17263298 -0.024918469 -0.0064988807 0.5008886 0.52027833 -0.010070853 0.021395294
0.4088996 0.16616428 -0.0037732967 -0.06941711 0.052286725 0.03786645 0.004201967 -0.032264624
0.5554902 -0.27852428 -0.036258742 0.022919934 -1.1657084 -0.48878664 0.036886364 -0.031070791
0.11851094 -0.15735665 0.03091201 0.017096313 -0.5182224 0.57371545 -0.045369465 -0.02088439
0.2937583 0.044685878 -0.010938981 -0.033508163 -0.07984579 0.042695295 -0.027566822 -0.024932697
0.39276344 -0.014333201 -0.003154123 -0.05505409 1.1952097 -0.53055394 -0.01658382 -0.06997137
00000000: 9f2f 2ebe fcf9 7f3f 96aa 253d 5863 103e
00000010: fa26 423e 0d9c f63d cab6 96bc e3f2 0a3e
00000020: 1731 413e 8a3a 903f cbcd 343c 15e1 9bbd
00000030: 10c7 e23d 44b4 023f d647 5ebb 58cb 98bd
00000040: 6925 113f 57dd 883f 409b 55bc 8c93 a1bd
00000050: 18ac 413d 706a 5c3f 9c94 9dbb c87c a4bd
00000060: 7e9c ba3c e51b 2d3e d062 753c 401a d13b
00000070: 1082 35be 64b2 863d 7c75 10bd f207 823d
00000080: 1cb0 5f3e 4bb0 883e fe27 05bd 89e2 1b3c
00000090: 7101 f6bd 012c ea3e cc2a 8bbb 5af6 643c
000000a0: 2dc9 a93e 0038 cb3e c0e4 0fbc 36f7 673b
000000b0: 92c3 e7bc fe06 4f3f 164d 68bc 3260 9bbc
000000c0: 7754 4840 2f3c b9bd 1301 3e3f 3272 2fbf
000000d0: c8b9 123d c91b 133f 41f1 81bc 49fa 983d
000000e0: 2ae9 30bf aebb 203e cb2c 733c 1f11 423d
000000f0: 26d9 0a3e 1920 8c3f d85b 1e3d 393a 983e
00000100: 24ae f1bf a616 10be 58c1 8fba a82c 863e
00000110: df26 953d abea 903f 500f e83c 0e59 183e
00000120: 56f2 b3bf dd73 b2bd 3e08 fcbc aabb e13d
00000130: a4a9 22bd 2a02 66be 4b65 8c3c 8a59 48bc
00000140: a5c1 323f c876 c63d 9589 29bc 32f2 583d
00000150: 83a0 b63c 1ee5 22be d168 103d c4fb 36bc
00000160: 19e2 ee3f 6a16 0cbe 2422 9abc 5b0d 5e3d
00000170: d79f e83d 3219 bebe 9769 87bd 792a 90bd
00000180: 7b94 b03f f0ba fcbd dcf7 f73c 3c83 f4bd
00000190: 0763 fe3e 7316 9e3e 8356 41be 2ec1 ed3d
000001a0: 3e0b 8cbe efe6 0d3f 0511 4e3c f692 6abd
000001b0: a1c8 4cbd 3eb7 853d 0006 373b 7323 efbc
000001c0: e023 02bf c91e f53e 7852 d2bc ff94 a1bc
000001d0: cd9b 5d3e ca5a 85be 12e2 f5bb d6ac bb3c
000001e0: 6fd6 46bf 8c38 c33e 8529 09bd 6321 683d
000001f0: 4865 3e3f 4b80 96bf b9d5 b5bc 3a3a 963d
00000200: 8951 953d 9c29 4e3a b4b5 1fbc f359 4dbc
00000210: 55a8 b83d 80ef 763d 167b 433c 0e92 8b3c
00000220: 2b4a cf3d 3651 d7bc ab26 dabb a178 143c
00000230: 73e0 64be 8ca2 9dbe 8e3e a33c 91ab 983d
00000240: f722 0ebe 3985 b6bc e785 0d3c 9894 753d
00000250: c267 3fbf 9721 98bf b6ff 60bb 6237 9c3d
00000260: ebb7 9b3c f44c 83bd 659f 06bf 9e6f aa3e
00000270: 144e 2a3e f64e 983e 822f 183d d81a a7be
00000280: 92b5 893e 3a85 dabd fdcc 803d 4d74 a7be
00000290: a8e9 a73d 70f8 fe3d 3a9a 023e afb2 dbbd
000002a0: 5279 763e 0784 2bbe 0ee4 703d c0f8 b9bd
000002b0: e61b 9e3e 943c 443e f6b2 8abd b9a4 523e
000002c0: 022a e53e db0c 1abf 4c79 36bd 8f93 503e
000002d0: feea 193f 0304 a73f 780d 4b3d 95ad 213e
000002e0: 1a31 b3be a7c6 0dbe bfb7 6d3d d0d1 a63d
000002f0: 1c65 b23e 604d 933f eb5f 40bd 0006 a4bd
00000300: f248 9dbe a6f4 27be 80b5 50bd 58d3 81bd
00000310: e9d3 be3e cbde 9f3f 749f 03be 68d0 f83e
00000320: d18b fdbe cdd1 1ebf 4cfc febd 6d80 0a3f
00000330: 2de9 81be af4b 87bf 8f82 7bbf d3d2 aebe
00000340: e3ad e63d b3c6 30be d121 ccbc 90f4 d4bb
00000350: 3c3a 003f f630 053f 3800 25bc 2f45 af3c
00000360: 4a5b d13e f826 2a3e 6a49 77bb 8f2a 8ebd
00000370: 9b2a 563d da19 1b3d a7b0 893b e927 04bd
00000380: 9b34 0e3f bc9a 8ebe 0c84 14bd 96c2 bb3c
00000390: ef35 95bf 3e42 fabe 2816 173d 2c88 febc
000003a0: ddb5 f23d 1a22 21be 2f3b fd3c 910d 8c3c
000003b0: 39aa 04bf 04df 123f 55d5 39bd be15 abbc
000003c0: 7d67 963e 8a08 373d 6939 33bc db3f 09bd
000003d0: 3186 a3bd 43e1 2e3d d1d3 e1bc a83f ccbc
000003e0: 4a18 c93e cdd5 6abc 67b5 4ebb 6680 61bd
000003f0: a2fc 983f 62d2 07bf cbda 87bc 264d 8fbd

fc1.bias f4 [400]
-0.6874808 -0.4568458 0.60678196 -0.16457222 -1.0908982 -0.18051685 -0.26154044 -0.43679285
-0.09952877 -0.62269336 0.42280594 -0.4489939 -0.17585273 0.068172745 -0.58918834 -0.825905
-0.626446 0.52918756 -0.00021309096 -0.33332837 -0.45423996 -0.8059877 -0.3851255 -0.600495
-0.32730272 -0.57521355 0.026534071 -0.28561184 -0.61477804 -0.6486959 -0.15897399 0.0760226
-0.4815935 -0.12764624 -0.15159942 -0.62900454 0.052668184 0.041674282 0.0068879775 -0.058659922
0.008107677 -0.58911806 -0.26360926 -0.32102242 -0.18076465 -0.12638709 -0.13528013 0.106852934
0.08688188 -0.5956672 0.28747904 -0.37537527 -0.0013777913 -0.4304195 0.050233297 -0.26687098
-0.27046275 -1.0985591 -0.035018675 -0.039067518 -0.3035725 -0.23808278 -0.2031858 0.01905172
-0.425817 0.107041195 0.15149836 0.30463788 -0.47961313 -0.4478945 -0.24811776 -0.310735
-0.12785996 -0.5098412 -0.6395043 -0.3297586 -0.30266035 -0.1983528 -0.1352148 -0.47983167
-0.11609951 -0.1556811 -0.92068917 0.015851459 -0.4821006 -0.13433391 -0.47024968 -0.21057089
-0.39991477 0.3916065 -0.13593124 -0.35813025 -0.32874924 -0.104642294 -0.7968837 -0.18524946
-0.010386775 -0.41518378 -0.069577225 -0.18086001 -1.1044862 0.013100968 -0.20421195 0.3424433
-0.014085512 -0.111204706 0.2520666 -0.3591119 -0.31365442 -0.6138286 -1.4184538 -0.077103324
-0.7906568 -0.22317943 -0.35701492 -0.12158262 -0.39457473 -0.03957035 0.014921312 -0.15890157
-0.18993455 0.076941065 -0.8140773 -0.38967395 -0.00351984 -0.36209098 -0.36960113 -0.10571225
-1.230866 -0.17382206 0.041090593 -0.17782314 -0.22360663 -0.19734327 -0.8838835 0.051813178
0.021173533 -0.18452509 -0.14717394 -0.8216803 -0.004928301 0.0859314 -0.4918616 -0.34720418
-0.2656664 0.0497782 -0.08573702 -0.007011404 -0.21491587 -0.007442646 -0.36520228 -0.18844691
-0.45561817 -0.15935485 -0.8414502 -0.80997777 -0.40288544 -0.092117354 -0.39079928 -0.5008578
-0.45989016 -0.5203125 -0.4205491 -0.56219465 -0.23393394 -0.30392593 -0.25259483 -0.37483084
-0.12602295 -0.21657196 -0.4098359 0.021527387 -0.31403232 -0.071894884 -0.3512779 -0.32201746
-0.4311302 0.029449318 -0.15668175 -0.07049943 -0.54181147 -0.71374005 0.04082367 -0.69210076
0.12764397 -0.5367759 -0.35980222 0.011460533 -0.2743417 -0.4237007 0.06552253 0.14951348
-0.2542692 -0.4964039 -0.19945544 -0.51867646 -0.49134478 0.0833319 0.21489938 -0.40006343
-0.057822123 -1.2062975 -0.44107646 -0.098806776 -0.10519445 0.17976512 0.08608752 -0.3940838
-0.23484133 -1.2260333 -0.1363418 0.4048992 -0.32336277 -0.4570035 -0.4669471 -0.21367845
-0.16258496 -0.3976273 -0.036634192 -0.52297246 -0.05007474 -0.6181177 -0.15785903 -0.71403605
-0.10490075 -0.27294117 -0.6211649 -0.36270607 -0.27931643 -1.3543862 -0.122405335 -0.43268958
-0.63251054 -0.35476568 0.084690705 -0.37899563 -0.4461312 -0.48221138 0.1295324 -0.10282575
-0.21173093 -0.28905424 0.12377026 0.26551926 -0.13903874 0.007406534 -0.08865687 -0.25311062
-0.2213564 -0.22886987 -0.8008584 0.014967794 -0.09024883 -0.24286485 -0.07269622 0.19870493
00000000: befe 2fbf b1e7 e9be 1056 1b3f 9f85 28be
00000010: 8da2 8bbf 69d9 38be a1e8 85be 50a3 dfbe
00000020: bdd5 cbbd d568 1fbf 057a d83e 87e2 e5be
00000030: bd12 34be 279e 8b3d 0cd5 16bf 836e 53bf
00000040: c45e 20bf d678 073f 2b71 5fb9 04aa aabe
00000050: 2492 e8be 3655 4ebf 2b2f c5be 0aba 19bf
00000060: 3994 a7be 3241 13bf fb5d d93c b73b 92be
00000070: 1862 1dbf ef10 26bf 14ca 22be bdb1 9b3d
00000080: 6c93 f6be b2b5 02be e13c 1bbe 7106 21bf
00000090: 98ba 573d a7b2 2a3d 8bb4 e13b 6345 70bd
000000a0: 10d6 043c 71d0 16bf cbf7 86be 0d5d a4be
000000b0: 5e1a 39be 9e6b 01be e086 0abe b6d5 da3d
000000c0: 21ef b13d a57d 18bf 7430 933e 3031 c0be
000000d0: 0197 b4ba f25f dcbe 6ec1 4d3d 50a3 88be
000000e0: 187a 8abe 969d 8cbf be6f 0fbd 4305 20bd
000000f0: db6d 9bbe f9cb 73be f00f 50be 5a12 9c3c
00000100: b004 dabe 6a38 db3d 6322 1b3e 7ff9 9b3e
00000110: da8f f5be 6e52 e5be 9512 7ebe a818 9fbe
00000120: b9ed 02be f484 02bf 8eb6 23bf 1fd6 a8be
00000130: 4cf6 9abe ff1c 4bbe c075 0abe 7fac f5be
00000140: 94c5 edbd de6a 1fbe 49b2 6bbf ebda 813c
00000150: e4d5 f6be d48e 09be 91c4 f0be e59f 57be
00000160: a1c1 ccbe a680 c83e 8f31 0bbe d95c b7be
00000170: d251 a8be b34e d6bd 9200 4cbf 09b2 3dbe
00000180: 4b2d 2abc f892 d4be 817e 8ebd 5e33 39be
00000190: ce5f 8dbf 71a5 563c f01c 51be ba54 af3e
000001a0: ebc6 66bc 4bbf e3bd e00e 813e 84dd b7be
000001b0: 5097 a0be df23 1dbf e58f b5bf 59e8 9dbd
000001c0: 7c68 4abf 2689 64be a9ca b6be 4f00 f9bd
000001d0: b305 cabe 8514 22bd 8578 743c 18b7 22be
000001e0: 347e 42be 4793 9d3d 5f67 50bf 5883 c7be
000001f0: 1ead 66bb fd63 b9be 5c3c bdbe aa7f d8bd
00000200: 048d 9dbf 69fe 31be 9c4e 283d 4517 36be
00000210: 23f9 64be 5b14 4abe 3046 62bf 0e3a 543d
00000220: 1e74 ad3c 25f4 3cbe c4b4 16be a459 52bf
00000230: 967d a1bb cdfc af3d 49d5 fbbe bfc4 b1be
00000240: 6d05 88be 3ae4 4b3d e496 afbd ebbf e5bb
00000250: e812 5cbe 71e1 f3bb cbfb babe 3af8 40be
00000260: c946 e9be eb2d 23be 4869 57bf b45a 4fbf
00000270: 0047 cebe 06a8 bcbd d816 c8be 3738 00bf
00000280: b976 ebbe 3333 05bf 3652 d7be fdeb 0fbf
00000290: 618c 6fbe 2e9c 9bbe 1c54 81be d4e9 bfbe
000002a0: 290c 01be 0ac5 5dbe 03d6 d1be 345a b03c
000002b0: d8c8 a0be a03d 93bd b2da b3be 79df a4be
000002c0: 19bd dcbe b23f f13c 2e71 20be 0162 90bd
000002d0: 28b4 0abf abb7 36bf b836 273d 842d 31bf
000002e0: 1ab5 023e 256a 09bf ff37 b8be f6c4 3b3c
000002f0: 8476 8cbe 4cef d8be ad30 863d 101a 193e
00000300: 932f 82be a728 febe 0c3e 4cbe fbc7 04bf
00000310: 8b91 fbbe eaa9 aa3d 950e 5c3e 1dd5 ccbe
00000320: e4d6 6cbd f567 9abf c6d4 e1be 355b cabd
00000330: 3070 d7bd 5914 383e a74e b03d 5ac5 c9be
00000340: 3f7a 70be a9ee 9cbf 2f9d 0bbe f34e cf3e
00000350: ce8f a5be 5dfc e9be b113 efbe 86ce 5abe
00000360: ac7c 26be ce95 cbbe bc0d 16bd 86e1 05bf
00000370: 2c1b 4dbd f63c 1ebf cca5 21be 11cb 36bf
00000380: 34d6 d6bd f2be 8bbe aa04 1fbf 9cb4 b9be
00000390: 9002 8fbe 875c adbf a6af fabd 7d89 ddbe
000003a0: 36ec 21bf d9a3 b5be 5272 ad3d b70b c2be
000003b0: 4f6b e4be 69e4 f6be 24a4 043e 4f96 d2bd
000003c0: fecf 58be ebfe 93be 437b fd3d 24f2 873e
000003d0: 2c60 0ebe 83b2 f23b bc91 b5bd b797 81be
000003e0: 41ab 62be dd5c 6abe 0e05 4dbf 7a3b 753c
000003f0: 61d4 b8bd 90b1 78be c1e1 94bd 4e79 4b3e

fc2.weight f4 [300, 400]
0.066549115 0.03039384 -0.0470563 0.005817744 -0.008072783 -0.06515244 -0.04752228 -0.03574478
-0.10006631 -0.040850196 -0.024618464 -0.0169518 -0.026633257 0.0091376165 -0.05236894 0.018709911
-0.047406793 0.025439553 -0.12832299 -0.0054750834 -0.0040580174 -0.020277847 0.006862202 -0.019305797
-0.016628979 -0.0653238 -0.04967552 -0.09871028 0.006203789 0.0027390614 -0.020592727 -0.020027181
-0.02990805 0.061160743 -0.060888793 -0.009716914 0.03374225 -0.1191922 -0.08435283 0.022298945
-0.03023764 -0.00867631 -0.04913162 -0.021884954 0.07575073 -0.07391443 0.15898998 -0.0805679
-0.04708641 0.064615995 -0.01582948 0.005316756 0.045590073 -0.06356544 0.05498786 0.049990695
0.011564292 0.0037537543 0.006643059 -0.050258633 -0.030703308 -0.008143711 -0.015734898 0.029948926
0.009401575 0.047883824 0.024321133 -0.036269974 -0.0038024327 -0.06157425 0.02752886 -0.024316214
-0.05693248 0.024437193 -0.050551835 0.0062574567 -0.02187053 0.012221124 0.022061344 -0.04810134
0.055547576 -0.052096996 0.051113505 -0.062984295 -0.022217935 0.052130517 -0.045449886 0.047737014
0.06889004 0.006254501 0.053495836 -0.01878741 0.020128986 -0.0044035683 -0.049295034 -0.0204549
0.108036935 -0.014013066 -0.045640983 -0.00083169487 -0.017281456 -0.057133652 0.042239744 -0.004678584
0.029080924 -0.015130342 -0.016156618 0.03522121 -0.009576751 -0.00025253437 -0.009565465 -0.04885967
-0.094672024 -0.056198906 0.06425868 0.004324637 -0.038712196 -0.012006299 0.04520139 -0.06251677
-0.030416714 0.021683529 0.019816646 -0.006454434 -0.020534944 0.085179865 0.08002788 -0.032981616
0.015224723 0.04136429 -0.014528956 -0.029036641 0.019433621 0.031736422 -0.01641385 0.004099036
-0.032796018 0.02395864 -0.031544305 0.0084703285 -0.08133179 0.023420269 -0.038253635 -0.014067591
0.03990396 -0.014744101 -0.0607137 0.05015609 0.14386512 -0.044255156 -0.05611799 0.055855863
0.004090963 -0.07758017 -0.023325274 -0.04391106 0.0040636365 0.05881378 -0.052894562 0.06646376
0.029172191 0.01666804 -0.00788768 -0.04726783 -0.044681165 0.03247936 -0.06904914 -0.09152039
-0.08383873 -0.0034600245 -0.016383365 0.060188428 0.036029607 -0.010581358 -0.02551391 -0.024019567
-0.06283528 -0.046717603 -0.01887217 0.017033178 0.042056605 -0.05576218 0.022417933 -0.008373788
0.052294437 -0.09920949 -0.0198812 0.035921577 0.030058822 0.012409989 0.022970779 0.0076130433
0.056779742 -0.05896912 -0.11338812 -0.020698309 0.044214178 0.07188952 0.0038668122 -0.027439483
-0.023906427 0.010271872 -0.033201996 0.09392696 -0.03934516 0.023310449 -0.029611783 -0.012561374
-0.039680444 0.02622469 0.041271158 -0.020002093 0.032803617 -0.0055632843 -0.025775684 0.01087295
0.11865575 -0.040667657 -0.11247811 -0.066208325 0.0029646838 0.008694673 -0.024929032 -0.047958143
0.016882302 -0.057047967 -0.06667238 -0.05378051 -0.055513084 0.015152783 -0.08168649 -0.0034328222
-0.010091475 0.0073095197 -0.031480256 0.015443855 -0.03572593 0.0031736388 -0.010377992 -0.016049402
-0.010717707 -0.038506962 -0.13042408 0.023933215 0.02874564 -0.04837911 0.013750655 -0.0565525
0.044042815 -0.00993271 0.030896734 -0.09725741 -0.0036460066 -0.015812863 0.010072662 0.0026338678
00000000: e74a 883d 81fc f83c 1bbe 40bd c6a2 be3b
00000010: b543 04bc a46e 85bd b9a6 42bd 1e69 12bd
00000020: 91ef ccbd 8952 27bd a9ac c9bc 80de 8abc
00000030: fd2d dabc f1b5 153c d080 56bd 8745 993c
00000040: a02d 42bd 9c66 d03c 1a67 03be 5468 b3bb
00000050: 1ef9 84bb ba1d a6bc 53dc e03b 3127 9ebc
00000060: 7f39 88bc 7cc8 85bd 8f78 4bbd 9e28 cabd
00000070: 2749 cb3b d381 333b 14b2 a8bc 0b10 a4bc
00000080: ba01 f5bc b083 7a3d 8766 79bd b133 1fbc
00000090: 5035 0a3d 0a1b f4bd 2dc1 acbd 47ac b63c
000000a0: edb4 f7bc 1527 0ebc 3d3e 49bd 1348 b3bc
000000b0: 3323 9b3d 7360 97bd 45ce 223e c800 a5bd
000000c0: aedd 40bd 6455 843d d3ac 81bc 2f38 ae3b
000000d0: a8bc 3a3d 992e 82bd f33a 613d 0bc3 4c3d
000000e0: 2878 3d3c 8c01 763b 05ae d93b ffdb 4dbd
000000f0: 8185 fbbc 336d 05bc 79e6 80bc 7357 f53c
00000100: 1009 1a3c d421 443d 1d3d c73c d38f 14bd
00000110: 3c32 79bb 4835 7cbd 3484 e13c cc32 c7bc
00000120: 0832 69bd 8230 c83c 710f 4fbd 5a0b cd3b
00000130: d329 b3bc 1c3b 483c feb9 b43c e905 45bd
00000140: db85 633d a963 55bd 655c 513d e9fd 80bd
00000150: 6302 b6bc cf86 553d a929 3abd e387 433d
00000160: 3916 8d3d 8ff2 cc3b 731e 5b3d 0ee8 99bc
00000170: 8be5 a43c cf4b 90bb 97e9 49bd 0991 a7bc
00000180: 7842 dd3d 0f97 65bc 0af2 3abd 1906 5aba
00000190: d791 8dbc fa04 6abd 9503 2d3d cf4e 99bb
000001a0: 1e3b ee3c 41e5 77bc e25a 84bc 1e44 103d
000001b0: cee7 1cbc 9766 84b9 78b8 1cbc 1421 48bd
000001c0: 68e3 c1bd d330 66bd 0e9a 833d afb5 8d3b
000001d0: ae90 1ebd 11b6 44bc 1825 393d cb08 80bd
000001e0: 792c f9bc a8a1 b13c 8556 a23c b77f d3bb
000001f0: e638 a8bc c872 ae3d a8e5 a33d bb17 07bd
00000200: 1e71 793c 9a6d 293d dc0a 6ebc 40de edbc
00000210: 4233 9f3c 0dfe 013d 5776 86bc 3551 863b
00000220: 1e55 06bd e944 c43c 9a34 01bd 22c7 0a3c
00000230: 4891 a6bd dddb bf3c d8af 1cbd c17b 66bc
00000240: 5672 233d 3e91 71bc eeae 78bd 7970 4d3d
00000250: 6151 133e e544 35bd fadb 65bd 1ec9 643d
00000260: 7c0d 863b 5ae2 9ebd a514 bfbc 15dc 33bd
00000270: 4128 853b b8e6 703d f8a7 58bd 271e 883d
00000280: 85fa ee3c 6a8b 883c 543b 01bc ea9b 41bd
00000290: 9903 37bd 1409 053d a369 8dbd 0b6f bbbd
000002a0: a4b3 abbd 94c1 62bb 6836 86bc 2488 763d
000002b0: c893 133d 6f5d 2dbc 8c02 d1bc afc4 c4bc
000002c0: c9af 80bd f55a 3fbd cf99 9abc 2a89 8b3c
000002d0: 8c43 2c3d e266 64bd d0a5 b73c 3632 09bc
000002e0: b132 563d 582e cbbd e6dd a2bc 8122 133d
000002f0: eb3d f63c 4453 4b3c 372d bc3c d676 f93b
00000300: e091 683d 9b89 71bd 0838 e8bd 808f a9bc
00000310: ed19 353d d03a 933d 586a 7d3b c4c8 e0bc
00000320: 69d7 c3bc 5b4b 283c d1fe 07bd c75c c03d
00000330: 6428 21bd 8ef5 be3c 6994 f2bc 39ce 4dbc
00000340: f687 22bd 29d5 d63c f20b 293d 6edb a3bc
00000350: 165d 063d 364c b6bb 8727 d3bc 7524 323c
00000360: c901 f33d 2193 26bd ec5a e6bd 3b98 87bd
00000370: 244b 423b 1a74 0e3c f837 ccbc c26f 44bd
00000380: c14c 8a3c 21ab 69bd 878b 88bd f448 5cbd
00000390: b061 63bd 6143 783c 3f4b a7bd 33f9 60bb
000003a0: b756 25bc b284 ef3b 71f1 00bd 3908 7d3c
000003b0: 5a55 12bd d3fc 4f3b 7408 2abc 097a 83bc
000003c0: 5299 2fbc 7ab9 1dbd e48d 05be 970f c43c
000003d0: fa7b eb3c 2c29 46bd 6d4a 613c 98a3 67bd
000003e0: 3d66 343d cebc 22bc 261b fd3c e52e c7bd
000003f0: d7f1 6ebb fa89 81bc ce07 253c f89c 2c3b

fc2.bias f4 [300]
-0.13879865 -0.17036091 -0.004191649 -0.13793439 -0.16648513 -0.15149866 -0.1699448 -0.18080558
-0.18888211 -0.07586532 -0.15389995 -0.15982544 -0.12439277 -0.13550684 -0.15476476 -0.19045249
-0.09950006 -0.20457695 -0.13015588 -0.27004334 -0.13586822 -0.11881967 -0.049848266 -0.16624695
-0.21041456 -0.1390942 -0.16088247 -0.12163681 -0.10782247 -0.14851435 -0.19798622 -0.12637639
-0.1922889 -0.15679453 -0.17636497 -0.12637094 -0.22445676 -0.22766095 -0.13738303 -0.17107761
-0.1860963 -0.1469795 -0.23869734 -0.13622333 -0.13893278 -0.17767629 -0.20886482 -0.10762875
-0.14919874 -0.2413755 -0.18615827 -0.15992878 -0.17757198 -0.10924833 -0.13468589 -0.1737318
-0.18774389 -0.11497512 -0.1402441 -0.16042174 -0.106101364 -0.10881341 -0.23789266 -0.009558104
-0.12154662 -0.1354794 -0.12430613 -0.14534035 -0.14098915 -0.26586187 -0.18981881 -0.15609913
-0.13343418 -0.15551798 -0.11961393 -0.19466384 -0.20583795 -0.1831508 -0.17343819 -0.15943703
-0.12437787 -0.20862687 -0.2178863 -0.14326906 -0.11954238 -0.12010118 -0.22327824 -0.09222075
-0.1864979 -0.18296297 -0.16549963 -0.123111255 -0.16369985 -0.11919965 -0.17938773 -0.150735
-0.19777623 -0.15724653 -0.17682691 -0.1656309 -0.17481261 -0.2837442 -0.0965943 -0.07361992
-0.07828799 -0.114706896 -0.14333189 -0.12293989 -0.14578739 -0.08740017 -0.13935001 -0.12656781
-0.1589602 -0.19329792 -0.15428117 -0.14864846 -0.13578859 -0.16088247 -0.14950529 -0.11954556
-0.14891668 -0.13766615 -0.16951035 -0.13003764 -0.0723498 -0.18746647 -0.12995379 -0.111272134
-0.18503755 -0.1202949 -0.21376315 -0.11333597 -0.12472968 -0.16824374 -0.22036867 -0.08009105
-0.1513903 -0.13873976 -0.12877005 -0.13750224 -0.120786645 -0.14554225 -0.14973626 -0.15321235
-0.100125924 -0.15807194 -0.08461087 -0.20956519 -0.3011869 -0.12459394 -0.09958003 -0.13043496
-0.08319053 -0.08715429 -0.12282068 -0.110333346 -0.16942094 -0.1831749 -0.15432587 -0.15550749
-0.14891668 -0.16738395 -0.15322813 -0.21618138 -0.14882916 -0.16788611 -0.10575113 -0.0802347
-0.15159598 -0.19189218 -0.10810321 -0.08591748 -0.16069539 -0.16042052 -0.18864368 -0.10765111
-0.12541725 -0.12775676 -0.17115629 -0.16141891 -0.15340199 -0.13349378 -0.12879395 -0.11688994
-0.07980047 -0.121851675 -0.1426002 -0.10443241 -0.10025258 -0.13387476 -0.17906372 -0.1525079
-0.22470497 -0.28857774 -0.122471295 -0.10511787 -0.22129282 -0.15700811 -0.15170324 -0.16621715
-0.21985269 -0.1517177 -0.12512295 -0.16165733 -0.21252383 -0.22437137 -0.15371491 -0.1766779
-0.1283677 -0.17588812 -0.17557806 -0.1163535 -0.12982805 -0.15186715 -0.17532188 -0.16152322
-0.2075237 -0.1580972 -0.29468957 -0.20840289 -0.09597589 -0.088957354 -0.26167262 0.12959905
-0.15714136 -0.26175216 -0.12831894 -0.18057692 -0.06579103 -0.1545808 -0.1950755 -0.17754085
-0.2053034 -0.1424942 -0.15262711 -0.13331497 -0.18509716 -0.14663677 -0.13356747 -0.13811412
-0.199706 -0.18199065 -0.1163833 -0.0034674862 -0.15630776 -0.10882086 -0.1888962 -0.1503943
-0.16983818 0.0070689972 -0.3287213 -0.119464375 -0.08515241 -0.24644603 -0.14803599 -0.15307271
00000000: 3c21 0ebe 1773 2ebe 1a5a 89bb ac3e 0dbe
00000010: 147b 2abe 7722 1bbe 0206 2ebe 1925 39be
00000020: 506a 41be 475f 9bbd f397 1dbe 48a9 23be
00000030: a3c1 febd 4ec2 0abe a77a 1ebe fa05 43be
00000040: b0c6 cbbd 9f7c 51be 9547 05be 1f43 8abe
00000050: 0a21 0bbe ba57 f3bd b22d 4cbd a43c 2abe
00000060: ea76 57be b66e 0ebe 60be 24be b81c f9bd
00000070: 07d2 dcbd 2514 18be e6bc 4abe d068 01be
00000080: 62e7 44be bf8e 20be 0599 34be 6267 01be
00000090: fed7 65be f41f 69be 23ae 0cbe f82e 2fbe
000000a0: 0790 3ebe cb81 16be 136d 74be 217e 0bbe
000000b0: 6544 0ebe c6f0 35be a9e0 55be 766c dcbd
000000c0: 8ec7 18be 242b 77be 46a0 3ebe 5fc4 23be
000000d0: 6ed5 35be 97bd dfbd 19eb 09be c0e6 31be
000000e0: ef3f 40be 1378 ebbd 269c 0fbe 9945 24be
000000f0: ac4b d9bd 91d9 debd 229a 73be 9899 1cbc
00000100: 6fed f8bd 1dbb 0abe 3694 febd 1ad4 14be
00000110: 765f 10be 0c1f 88be dd5f 42be 73d8 1fbe
00000120: f8a2 08be 1b40 1fbe 26f8 f4bd f555 47be
00000130: 2fc7 52be e28b 3bbe c899 31be 7643 23be
00000140: d3b9 febd 48a2 55be 961d 5fbe 20b5 12be
00000150: a3d2 f4bd 9cf7 f5bd 0da3 64be 3cde bcbd
00000160: 4ef9 3ebe a55a 3bbe bc78 29be c121 fcbd
00000170: efa0 27be f21e f4bd 6bb1 37be 475a 1abe
00000180: da85 4abe 3c05 21be 1d12 35be 269b 29be
00000190: 1402 33be eb46 91be 3bd3 c5bd 0ac6 96bd
000001a0: 7455 a0bd 73eb eabd 98c5 12be e9c7 fbbd
000001b0: 4a49 15be dcfe b2bd c5b1 0ebe fe9a 01be
000001c0: 76c6 22be e4ef 45be e2fb 1dbe 4d37 18be
000001d0: 2a0c 0bbe 60be 24be ea17 19be 4dd4 f4bd
000001e0: 9d7d 18be 5bf8 0cbe 1f94 2dbe 9628 05be
000001f0: 222c 94bd 36f7 3fbe 9b12 05be a5e2 e3bd
00000200: 7c7a 3dbe 2c5d f6bd bae4 5abe b01c e8bd
00000210: 4672 ffbd 1648 2cbe 53a8 61be c706 a4bd
00000220: 0f06 1bbe cc11 0ebe 4cdc 03be 63cd 0cbe
00000230: fd5e f7bd 0709 15be 7654 19be b3e3 1cbe
00000240: d20e cdbd 9cdd 21be 7748 adbd 4298 56be
00000250: 2b35 9abe 1c2b ffbd 9df0 cbbd be90 05be
00000260: cc5f aabd f37d b2bd 6989 fbbd 73f6 e1bd
00000270: af7c 2dbe 3392 3bbe 9a07 1ebe 5b3d 1fbe
00000280: 9d7d 18be b366 2bbe d6e7 1cbe a75e 5dbe
00000290: ac66 18be 56ea 2bbe 0c94 d8bd 1752 a4bd
000002a0: fa3b 1bbe 627f 44be 3765 ddbd 81f5 afbd
000002b0: 558d 24be 4745 24be cf2b 41be 2f78 dcbd
000002c0: 616d 00be abd2 02be 9843 2fbe 004b 25be
000002d0: 6915 1dbe 98b2 08be 90e2 03be fe63 efbd
000002e0: 6e6e a3bd 5f8d f9bd c905 12be a9e0 d5bd
000002f0: 3a51 cdbd 7716 09be 7b5c 37be 082b 1cbe
00000300: 0f19 66be 76c0 93be 3bd2 fabd 0a48 d7bd
00000310: 969a 62be bcc6 20be 1858 1bbe d434 2abe
00000320: 1021 61be e25b 1bbe 3b20 00be 8089 25be
00000330: d99f 59be 9cc1 65be 7167 1dbe 0deb 34be
00000340: d372 03be 041c 34be bcca 33be be4a eebd
00000350: a5f1 04be 1083 1bbe 9487 33be 5866 25be
00000360: 1881 54be 3be4 21be 8de1 96be 9167 55be
00000370: 028f c4bd 462f b6bd f4f9 85be 9db5 043e
00000380: aae9 20be 6104 86be 0a66 03be 28e9 38be
00000390: 73bd 86bd 6e4a 1ebe dfc1 47be 45cd 35be
000003a0: 0e3b 52be 00ea 11be 484a 1cbe b883 08be
000003b0: 1c8a 3dbe f327 16be e9c5 08be ca6d 0dbe
000003c0: bb7f 4cbe c25b 3abe 5e5a eebd c43e 63bb
000003d0: 240f 20be 79dd debd 016e 41be f700 1abe
000003e0: 0fea 2dbe 0ca3 e73b 294e a8be bda9 f4bd
000003f0: 6364 aebd 595c 7cbe bf96 17be 18bf 1cbe

fc3.weight f4 [1, 300]
-0.0148433605 0.0040073507 0.02377271 0.0024381175 -0.0029208702 0.0054424186 -0.006284426 -0.0094110165
0.0014236032 0.0068532242 0.006271743 0.018865818 -0.027022673 0.0003851963 -0.0003882325 0.007340784
-0.00074564345 -0.020691622 0.0004661766 -0.032789934 0.006741322 0.006907941 0.02865361 -0.030986432
0.024435425 -0.015855294 -0.0059705535 -0.001922548 -0.012421675 -0.001057405 0.006596792 -0.00586696
-0.0012954162 -0.014050224 0.008756874 -0.014412241 0.03967841 -0.011441319 0.008818341 0.0045172838
-0.015233287 0.0045170467 0.007598992 -0.0063428734 0.028177526 0.011662638 -0.010030938 0.007914016
0.004253602 -0.028237976 -0.04184846 0.0120612485 -0.00413629 -0.021259006 -0.0032467486 0.014114438
-0.005869438 0.0093771415 -0.009873014 -0.016390502 0.0182771 -0.0005133332 0.0065754545 0.024174446
-0.020134524 0.0074151796 0.0041108467 -0.026687393 0.02219836 -0.00039605584 -0.0052221767 -0.012605148
-0.027043162 8.0134785e-05 0.015624814 0.021859355 5.4328582e-05 -0.025310965 0.001162633 0.0032430235
-0.018228345 0.03415381 0.011845005 0.007287926 -0.004726756 -0.003949541 0.0025047923 0.014358851
-0.008652564 -0.024729125 0.0009659161 -0.017211994 0.01599011 -0.0045973007 0.047587566 0.0076111755
0.0014137003 -0.029650899 -0.016118607 0.045808986 0.0076038623 0.040123448 0.0008886969 -0.00034536692
0.012572551 0.019683756 0.020688754 -0.0025948144 -0.003799496 0.0032092624 -0.00280809 -0.00037386752
0.0044105677 -0.020608146 0.011701753 -0.0005914847 0.013197477 -0.018379224 0.00648418 0.005728919
-0.012997239 0.007826471 0.0018593285 -0.0018315667 -0.0049791476 0.022537364 0.007976383 -0.0072972393
-0.010497538 0.0011763428 0.007765816 0.019694934 0.003933985 -0.008266061 -0.02773235 -0.018411554
-0.008064892 0.020930383 -0.0072171446 -0.013763729 0.0039863447 0.0013956507 0.0036961176 -0.012502197
0.013739513 0.030051803 -0.026539937 -0.00958483 0.02767933 0.01732003 0.015491149 0.0037303905
-0.023219101 0.0031619025 -0.0052576163 -0.00052180927 -0.008807165 0.0062336554 -0.0093743475 0.0032970207
0.027987536 -0.0052056108 0.03673852 0.03154058 0.023998352 -0.0007631996 0.023232067 -0.028952269
-0.017885823 0.008924513 0.024242267 -0.028624699 -0.01899016 0.022138756 -0.017040629 -0.0056739226
-0.00022294241 0.0009080803 -0.039928723 -0.003229286 0.011964389 -0.018521862 0.022385003 0.0091573475
-0.007954085 -0.023914594 -0.00021091751 -0.00031550412 -0.003314736 0.007040466 0.008472304 0.0014137076
0.0047742533 0.031883847 0.007453085 0.00876153 -0.009407577 0.035437282 -0.0019205865 0.002372924
0.01306337 0.0043295794 -0.00818224 0.016783582 -0.0040541394 -0.008986291 0.0075766398 -0.019430634
-0.003215549 -0.008983188 -0.031315826 0.020771556 -0.0015856553 0.0058923205 0.009634191 -0.021255849
-0.019069916 0.0021365462 -0.022562817 -0.009428366 0.01764227 0.024569537 0.054536946 0.020159574
-0.007923801 -0.030992327 0.0048652445 0.017432224 0.0027242913 0.0010279362 -0.023757515 0.014607135
-0.015872736 -0.004128839 0.0018230292 0.010535723 0.013142527 -0.019335438 0.003162411 0.01597982
-0.03327385 -0.028279575 0.010993939 0.025271446 0.0006843854 0.0152343055 0.024209771 -0.008989275
-0.019575723 0.019542929 0.0367121 -0.000839371 0.00577496 -0.015315648 0.0154812895 -0.014678919
00000000: 9131 73bc 1850 833b fcbe c23c d3c8 1f3b
00000010: 126c 3fbb 5156 b23b 96ed cdbb aa30 1abc
00000020: 3298 ba3a 0391 e03b 3283 cd3b 7d8c 9a3c
00000030: a75e ddbc 2cf4 c939 af8b cbb9 f68a f03b
00000040: 4977 43ba 7a81 a9bc 2a69 f439 bd4e 06bd
00000050: 4fe6 dc3b 025c e23b faba ea3c 42d7 fdbc
00000060: cd2c c83c f6e2 81bc a2a4 c3bb 02fe fbba
00000070: 4884 4bbc a098 8aba e729 d83b a13f c0bb
00000080: f4ca a9ba e932 66bc fe78 0f3c 5221 6cbc
00000090: d485 223d 5f74 3bbc ce7a 103c b905 943b
000000a0: 0995 79bc bc03 943b f700 f93b e1d7 cfbb
000000b0: 8ed4 e63c a614 3f3c ce58 24bc caa9 013c
000000c0: cd61 8b3b 5453 e7bc 4a69 2bbd 8b9c 453c
000000d0: b789 87bb 5e27 aebc 67c7 54bb 3e40 673c
000000e0: 6a54 c0bb 95a2 193c 6cc2 21bc 6045 86bc
000000f0: dbb9 953c 3591 06ba e976 d73b 7d09 c63c
00000100: 28f1 a4bc 09fb f23b 48b4 863b 859f dabc
00000110: 56d9 b53c b7a5 cfb9 cb1e abbb d385 4ebc
00000120: 9f89 ddbc 090e a838 38ff 7f3c 6412 b33c
00000130: dfde 6338 f158 cfbc 7d63 983a e888 543b
00000140: 9c53 95bc dee4 0b3d 8d11 423c 8ecf ee3b
00000150: e7e2 9abb 276b 81bb 7127 243b 6341 6b3c
00000160: 7cc3 0dbc bc94 cabc 8835 7d3a 2b00 8dbc
00000170: b1fd 823c f4a4 96bb 2eeb 423d 2b67 f93b
00000180: e94b b93a 71e6 f2bc 2b0b 84bc 34a2 3b3d
00000190: d229 f93b 7c58 243d 70f7 683a 5d12 b5b9
000001a0: 1afd 4d3c d43f a13c 767b a93c c30d 2abb
000001b0: f700 79bb 7d52 523b ef07 38bb a603 c4b9
000001c0: 8686 903b 6ad2 a8bc b6b8 3f3c de0d 1bba
000001d0: 3b3a 583c 0790 96bc 3f79 d43b a8b9 bb3b
000001e0: 5ff2 54bc 993a 003c b6b4 f33a 2e11 f0ba
000001f0: 1e28 a3bb 47a0 b83c 60af 023c ae1d efbb
00000200: defd 2bbc 842f 9a3a 6378 fe3b 4557 a13c
00000210: a8e8 803b 5f6e 07bc f42e e3bc d4d3 96bc
00000220: 9c22 04bc 3276 ab3c cc7d ecbb 4381 61bc
00000230: e29f 823b 44ee b63a 903a 723b 04d6 4cbc
00000240: b21b 613c 332f f63c 486a d9bc b109 1dbc
00000250: c3bf e23c bce2 8d3c 97ce 7d3c 9179 743b
00000260: fc35 bebc ec37 4f3b 1548 acbb 07ca 08ba
00000270: ed4b 10bc b143 cc3b dd96 19bc d412 583b
00000280: 1e46 e53c d493 aabb 217b 163d b230 013d
00000290: 3198 c43c 7511 48ba 2d51 be3c 4f2d edbc
000002a0: 4a85 92bc 1f38 123c b897 c63c 587e eabc
000002b0: 4191 9bbc 565c b53c ca98 8bbc 50ec b9bb
000002c0: a6c5 69b9 3d0c 6e3a 4d8c 23bd 6ea2 53bb
000002d0: 4906 443c 29bb 97bc c160 b73c b308 163c
000002e0: da51 02bc 8ae8 c3bc bd29 5db9 3f6a a5b9
000002f0: 0b3c 59bb b6b3 e63b 6bcf 0a3c 284c b93a
00000300: 5771 9c3b a398 023d 0239 f43b 858c 0f3c
00000310: 3d22 1abc af26 113d 30bc fbba 0f83 1b3b
00000320: bf07 563c 25df 8d3b cd0e 06bc b97d 893c
00000330: 96d8 84bb 3c3b 13bc 7645 f83b fe2c 9fbc
00000340: f6bb 52bb 392e 13bc 0645 00bd 1c29 aa3c
00000350: c3d5 cfba 5e14 c13b bad8 1d3c bf20 aebc
00000360: 8338 9cbc 4c05 0c3b a8d5 b8bc 6f79 1abc
00000370: 8686 903c 0e46 c93c 2262 5f3d b125 a53c
00000380: d5d2 01bc 9fe3 fdbc a16c 9f3b 06ce 8e3c
00000390: 068a 323b d1bb 863a 1f9f c2bc c452 6f3c
000003a0: 8a07 82bc 364b 87bb b6f2 ee3a 069e 2c3c
000003b0: c153 573c 5a65 9ebc 7440 4f3b 1de8 823c
000003c0: 294a 08bd 91aa e7bc ec1f 343c 1006 cf3c
000003d0: 5468 333a 4f99 793c 9253 c63c c147 13bc
000003e0: 445d a0bc 7e18 a03c 6d5f 163d 3c09 5cba
000003f0: e03b bd3b 7cee 7abc 3ca5 7d3c d97f 70bc

bn1.weight f4 [400]
0.23612836 0.6075518 0.5250751 0.07186758 0.4372221 0.07149689 0.04706492 0.11222028
0.049131636 0.17152148 0.3295712 0.1074296 0.031835366 -0.13408796 0.17767954 0.072910525
0.10046436 0.48568124 0.10648097 0.042329434 0.25173226 0.6715339 0.1899848 0.09072855
0.096463755 0.08956176 0.037162732 0.07098877 0.10171436 0.33310458 0.11849953 0.095465414
0.112482406 -0.12229556 0.05376491 0.065893196 -0.04462157 -0.11832304 0.10549887 -0.0002828016
0.09073232 0.17647721 0.13153186 0.047508985 0.7691942 0.19653702 -0.105301134 -4.7895588e-05
0.037184104 0.046276696 0.24400122 0.106348544 0.21340138 0.08162079 0.13106176 0.14625764
0.053227823 0.19659175 0.12699816 0.18783544 -0.05591111 0.050996155 0.08443409 -0.007725627
0.05833652 0.21223195 0.82552356 0.17640144 0.10360355 0.10913006 0.091905564 0.07918249
0.022001537 0.3102845 0.08096106 0.20955496 0.071093105 0.11277054 0.08713187 0.13903418
0.060396906 0.5169522 0.26309535 0.14282185 0.14268707 0.17800543 0.15372501 0.27227348
0.26429904 0.10901187 0.1264561 0.08980182 0.088163175 -0.00090503355 0.19154486 0.034345344
-0.121937834 0.1049122 0.043931697 0.07800552 0.1861543 0.0015868271 0.1050346 0.16664344
0.005142295 0.00076417986 0.162962 0.105923735 0.0070430604 0.074824676 0.34023073 0.07495828
0.3705884 0.39665535 0.7544061 0.0452048 0.47928813 0.0009675517 0.21417618 0.0003259044
0.08245043 0.1125664 0.06443935 0.94103485 0.05746349 0.11744621 0.16149075 0.09428992
0.21029907 0.06616632 0.13552822 0.11310843 0.25543138 0.09218889 0.079637304 -0.00078069203
0.07990614 0.023861986 0.039303508 0.315314 0.08404882 0.11466215 0.02890889 0.20152822
0.04563243 0.07530027 0.06524169 0.077505104 -0.046780415 -0.001252507 0.1966038 0.07846136
0.10883517 0.084791765 0.049518242 0.5007069 0.035687257 0.056108132 0.8230159 0.07267332
0.006567152 0.05620028 0.78256005 0.045791328 0.1161383 0.09053252 0.07072221 0.07579582
0.00032608115 -0.0028593626 0.18047376 0.06619796 0.076671086 0.5101055 0.19426331 0.12872139
0.057331678 0.00013267068 0.09766446 -0.008986056 0.66923594 0.25586957 0.17942025 0.20067869
-0.0003515392 0.09654218 0.45486388 0.06249146 0.084601246 0.0562191 0.055932913 0.2935239
0.058731824 0.13831572 0.4350149 0.20597649 0.08091998 0.078801505 0.5444836 0.6472998
0.036058206 0.34016445 0.841579 0.042905677 0.06950235 0.5282793 -0.00013431901 0.05450146
0.22754139 0.3184467 0.0001486221 0.34821227 0.06114764 0.15097947 0.30222294 0.14791639
0.100498505 0.18651669 -0.039826397 0.16904224 0.05507086 0.26094672 -0.04187377 0.93630296
0.05075189 0.008980535 0.11540591 0.18622354 0.13545054 0.45623654 -0.06855418 -0.07623349
0.068322875 0.051360503 0.1764723 0.16408151 0.16514017 -0.018441847 0.27132416 0.19272876
0.08477861 0.056702327 0.109715 0.50886863 0.7933913 0.00075100403 0.11173056 0.019805
0.09191706 0.09579039 0.13911374 0.22214447 0.051891934 0.9542317 0.0035483916 1.1065814
00000000: a2cb 713e 8488 1b3f 526b 063f 4f2f 933d
00000010: 93db df3e f66c 923d 25c7 403d bfd3 e53d
00000020: 413e 493d 54a3 2f3e 8ebd a83e 0d04 dc3d
00000030: cd65 023d 5b4e 09be a0f1 353e 1d52 953d
00000040: 42c0 cd3d 36ab f83e b212 da3d a161 2d3d
00000050: 0de3 803e a5e9 2b3f 608b 423e e4cf b93d
00000060: ca8e c53d 286c b73d f337 183d 8f62 913d
00000070: 9e4f d03d af8c aa3e e2af f23d 5f83 c33d
00000080: 2d5d e63d 1876 fabd 9838 5c3d 03f3 863d
00000090: 1bc5 36bd 5a53 f2bd cb0f d83d fd44 94b9
000000a0: ded1 b93d 71b6 343e 4ab0 063e c898 423d
000000b0: e9e9 443f 0041 493e 1fa8 d7bd 7fe3 48b8
000000c0: 5c4e 183d a28c 3d3d 75db 793e 44cd d93d
000000d0: e485 5a3e cd28 a73d 0e35 063e 90c4 153e
000000e0: 6b05 5a3d 594f 493e ce0b 023e ef57 403e
000000f0: 0c03 65bd 58e1 503d c8eb ac3d 4227 fdbb
00000100: 46f2 6e3d 5553 593e 8355 533f 94a2 343e
00000110: 192e d43d 957f df3d fc38 bc3d 6e2a a23d
00000120: 913c b43c 9cdd 9e3e eace a53d 9395 563e
00000130: 4399 913d 3ef4 e63d 3272 b23d fa5e 0e3e
00000140: bf62 773d fb56 043f 6fb4 863e e43f 123e
00000150: 8f1c 123e 0e47 363e 176a 1d3e 6e67 8b3e
00000160: 3452 873e 9e41 df3d b57d 013e 04ea b73d
00000170: e58e b43d c63f 6dba 5624 443e b4ad 0c3d
00000180: 8bba f9bd 35dc d63d b9f1 333d 5cc1 9f3d
00000190: 3c9f 3e3e 15fd cf3a 611c d73d 94a4 2a3e
000001a0: b280 a83b 3e53 483a 83df 263e 8bee d83d
000001b0: 79c9 e63b ae3d 993d b932 ae3e ba83 993d
000001c0: c3bd bd3e 6916 cb3e c220 413f ab28 393d
000001d0: 4165 f53e 4ca3 7d3a 0051 5b3e 26de aa39
000001e0: c5db a83d 3689 e63d c7f8 833d a9e7 703f
000001f0: d65e 6b3d a387 f03d d55d 253e 131b c13d
00000200: a458 573e 3582 873d e9c7 0a3e 64a5 e73d
00000210: e7c7 823e 87cd bc3d e218 a33d 5ba7 4cba
00000220: d5a5 a33d 367a c33c b7fc 203d d670 a13e
00000230: ca21 ac3d fdd3 ea3d 56d2 ec3c 6a5d 4e3e
00000240: 12e9 3a3d 0737 9a3d 6f9d 853d ffba 9e3d
00000250: d29c 3fbd 292b a4ba 8252 493e 59b0 a03d
00000260: f9e4 de3d 4ea7 ad3d a4d3 4a3d 542e 003f
00000270: cd2c 123d a4d1 653d 2cb1 523f c0d5 943d
00000280: 4431 d73b 4432 663d db55 483f b08f 3b3d
00000290: ebd9 ed3d 1d69 b93d ced6 903d d73a 9b3d
000002a0: dff5 aa39 2564 3bbb 1dce 383e cc92 873d
000002b0: bb05 9d3d 4696 023f f6ec 463e 8acf 033e
000002c0: 9fd4 6a3d 841d 0b39 4e04 c83d 403a 13bc
000002d0: 0c53 2b3f 5601 833e f1b9 373e b77e 4d3e
000002e0: cb4e b8b9 e8b7 c53d ebe3 e83e 0cf7 7f3d
000002f0: 6b43 ad3d 0046 663d e919 653d c448 963e
00000300: c890 703d a3a2 0d3e 46ba de3e 80eb 523e
00000310: 60b9 a53d af62 a13d 4763 0b3f 71b5 253f
00000320: c5b1 133d 092a ae3e b971 573f ddbd 2f3d
00000330: 4057 8e3d 503d 073f fcd7 0cb9 ec3c 5f3d
00000340: 9c00 693e 720b a33e 71d7 1b39 e148 b23e
00000350: f375 7a3d 5d9a 1a3e f7bc 9a3e 6577 173e
00000360: 29d2 cd3d 3bfe 3e3e 0121 23bd 6919 2d3e
00000370: fb91 613d cf9a 853e d583 2bbd 8db1 6f3f
00000380: 37e1 4f3d 1823 133c ef59 ec3d 62b1 3e3e
00000390: 8cb3 0a3e d697 e93e 2266 8cbd 4e20 9cbd
000003a0: ddec 8b3d 645f 523d 28b5 343e fc04 283e
000003b0: 811a 293e 5b13 97bc 00eb 8a3e b05a 453e
000003c0: 68a0 ad3d b340 683d 42b2 e03d 3745 023f
000003d0: b11b 4b3f 07df 443a fed2 e43d 183e a23c
000003e0: 033f bc3d c12d c43d d573 0e3e d779 633e
000003f0: a38c 543d 8748 743f 228c 683b 76a4 8d3f

bn1.bias f4 [400]
0.045189302 0.43822855 0.19918297 0.019392522 0.1034352 -0.011245541 0.022385616 0.03404503
0.0168727 0.0150121525 0.075123414 0.021507919 -0.0007000023 -0.02292045 0.007397655 0.007761943
0.035974924 0.13888855 0.081308395 0.0044940673 0.0681161 0.15768297 5.7810834e-05 0.020921618
0.007978423 0.03626475 0.008023266 0.012523658 0.03239864 0.090587474 0.016511505 0.023032263
0.035764933 -0.021778243 0.0008099518 0.0042107375 -0.011992642 -0.015880708 0.049677983 -6.5410284e-05
0.010192743 0.018532388 0.034067363 0.007240473 0.15656137 0.09978005 -0.060506064 0.00018946626
0.008844041 0.001804958 0.037554834 0.027749524 0.07393642 0.007706721 0.05604468 -0.023025123
0.005017006 0.080546826 0.024202308 0.04456539 -0.0017426064 0.005617811 0.0035170496 -5.6772467e-05
0.012860702 0.041643232 0.1696462 0.06632826 0.013903287 0.026022768 0.0074642305 0.012962114
0.0020525714 0.079929926 0.0031292518 0.046548594 0.0054309927 0.029114285 0.04160247 0.07038747
0.006645225 0.26475585 0.057104502 0.02153058 0.024872914 0.057205547 0.031516213 0.07229592
0.0908567 0.021044804 -0.0049952203 0.02567209 0.022379534 0.000100964615 0.06520119 -0.0015125581
-0.12759498 0.016958592 0.0071217716 -0.0019598168 0.06773955 0.0004822987 0.016261641 0.02097207
0.0006046764 -0.00016912981 0.026287233 0.0361984 0.0005871563 0.016294956 0.02644412 0.0031403785
0.205725 0.14527927 0.23219232 0.0074560065 0.13789667 0.0004586525 0.06267889 0.0003061158
0.014011998 0.023530623 0.01543412 0.21212165 0.008944252 -0.016262392 0.025885355 0.02663182
0.023117347 0.012356921 0.027936218 0.020751663 0.110204175 0.01723571 0.011652607 0.00012325092
0.0090757795 0.0011990945 0.00010895216 0.09816855 0.026693264 0.0613599 0.003017577 0.07129908
0.0011676903 0.023952812 0.01354125 0.012549828 -0.13320653 0.00016091304 0.032861084 0.014622042
0.005766567 0.01657989 0.0086769415 0.1766804 0.00069278455 0.0063176495 0.24701963 -0.0007071104
0.00065410574 -0.004543507 0.16752338 0.01903691 0.021865591 0.018534135 0.011258864 0.050212435
0.00019674745 -0.00023137707 0.05906806 -0.0038421834 0.025047673 0.20064959 0.039914057 0.027947199
0.015806241 0.00024616774 0.029296538 -0.0009717097 0.2806874 0.0058772373 -0.012231538 0.06982631
-0.00024325062 0.014253105 0.09319795 0.005575014 0.011052508 0.01996418 0.014260261 0.054450337
0.0068090004 0.038392857 0.14398172 0.06420499 0.0051831375 0.024925264 0.066301584 0.20402609
0.012499838 0.049537074 0.23143195 -0.019604959 0.011752192 0.1655015 3.942755e-05 0.010343031
0.0811412 0.015444253 8.0597725e-05 0.10844332 0.017804816 -0.0072458293 0.13261363 0.022902736
-0.0021358759 0.03299354 0.16568181 0.057999462 0.0054929364 0.12575082 -0.0040649683 0.17529811
0.0014756032 0.0009097148 0.02415619 0.026547773 0.028692031 0.24608234 0.038322154 -0.00059927814
0.00017888639 -0.0009727325 0.034943476 0.046200424 0.1293626 -4.4209613e-05 0.12995096 0.03216809
0.01236992 0.010663653 0.076129995 0.14807773 0.2565836 0.00015733218 0.03150277 0.0039288686
0.01505362 0.009077153 0.049255658 0.08006735 0.0025056538 0.21154581 0.00022070156 0.25245896
00000000: 6b18 393d 7e5f e03e 9ff6 4b3e 11dd 9e3c
00000010: d6d5 d33d 383f 38bc 0a62 b73c cd72 0b3d
00000020: 9e38 8a3c 88f5 753c 4eda 993d 6031 b03c
00000030: 5c80 37ba abc3 bbbc 0768 f23b e657 fe3b
00000040: 715a 133d cd38 0e3e 0485 a63d f842 933b
00000050: 7480 8b3d a577 213e e979 7238 d063 ab3c
00000060: eeb7 023c 598a 143d 0474 033c 0730 4d3c
00000070: 70b4 043d ed85 b93d 2343 873c 28ae bc3c
00000080: 407e 123d 4968 b2bc f252 543a 3afa 893b
00000090: c97c 44bc 4218 82bc 247b 4b3d e12c 89b8
000000a0: 76ff 263c 3cd1 973c 388a 0b3d 7d41 ed3b
000000b0: a051 203e 7c59 cc3d 35d5 77bd 76ab 4639
000000c0: 99e6 103c 5794 ec3a 19d3 193d f852 e33c
000000d0: fa6b 973d a988 fc3b 1b8f 653d 2f9f bcbc
000000e0: b265 a43b bcf5 a43d eb43 c63c 338a 363d
000000f0: 2b68 e4ba 9d15 b83b 4d7e 663b f91e 6eb8
00000100: b2b5 523c 1892 2a3d bcb7 2d3e 1cd7 873d
00000110: 9dca 633c b32d d53c 8196 f43b 0c5f 543c
00000120: 6f84 063b 4db2 a33d 2214 4d3b bda9 3e3d
00000130: 78f6 b13b 1581 ee3c 5a67 2a3d 4e27 903d
00000140: 30c0 d93b 148e 873e 69e6 693d e660 b03c
00000150: 48c2 cb3c 5d50 6a3d 2517 013d e20f 943d
00000160: 1413 ba3d 2766 ac3c f2ae a3bb 464e d23c
00000170: 4955 b73c f7bc d338 3488 853d 0741 c6ba
00000180: 42a8 02be bfec 8a3c c05d e93b 4570 00bb
00000190: 08bb 8a3d 09dd fc39 2237 853c 9ecd ab3c
000001a0: 2583 1e3a 7058 31b9 5358 d73c c644 143d
000001b0: 64eb 193a 007d 853c 57a1 d83c cfce 4d3b
000001c0: 93a9 523e 17c4 143e d3c3 6d3e 8451 f43b
000001d0: c934 0d3e 4c77 f039 ca5d 803d 2b7e a039
000001e0: 9492 653c 4bc3 c03c 64df 7c3c 6b36 593e
000001f0: e98a 123c b538 85bc 860d d43c f92a da3c
00000200: 9760 bd3c af74 4a3c 7fda e43c 64ff a93c
00000210: bab2 e13d e731 8d3c 93ea 3e3c eb3c 0139
00000220: 94b2 143c ef2a 9d3a 3f7d e438 980c c93d
00000230: d5ab da3c 8554 7b3d 8bc2 453b 4105 923d
00000240: 2f0d 993a b038 c43c 1edc 5d3c cb9d 4d3c
00000250: 4b67 08be c4ba 2839 5899 063d 4a91 6f3c
00000260: 78f5 bc3b 8dd2 873c bb29 0e3c b5eb 343e
00000270: fc9b 353a 4904 cf3b b7f2 7c3e 605d 39ba
00000280: 4b78 2b3a b3e1 94bb 408b 2b3e 4bf3 9b3c
00000290: 781f b33c e6d4 973c 1977 383c 8eab 4d3d
000002a0: fe4d 4e39 cf9d 72b9 5af1 713d 24cd 7bbb
000002b0: c730 cd3c 1677 4d3e ec7c 233d 86f1 e43c
000002c0: 177c 813c 1310 8139 4bff ef3c 56ba 7eba
000002d0: 42b6 8f3e d795 c03b ca66 48bc 1901 8f3d
000002e0: 1711 7fb9 db85 693c 91de be3d 9bae b63b
000002f0: 9415 353c ec8b a33c dfa3 693c 5107 5f3d
00000300: 091e df3b d441 1d3d f26f 133e e87d 833d
00000310: 4fd7 a93b 1130 cc3c 20c9 873d 37ec 503e
00000320: 1fcc 4c3c 63e7 4a3d 7ffc 6c3e 949a a0bc
00000330: 448c 403c 3a79 293e 025f 2538 d175 293c
00000340: 5c2d a63d e409 7d3c 9306 a938 8817 de3d
00000350: 68db 913c 6c6e edbb decb 073e 859e bb3c
00000360: 0dfa 0bbb 3c24 073d 7ea8 293e d890 6d3d
00000370: 17fe b33b d3c4 003e 6d33 85bb 5981 333e
00000380: 0769 c13a ed79 6e3a 34e3 c53c b77a d93c
00000390: 8d0b eb3c 02fd 7b3e b1f7 1c3d e018 1dba
000003a0: 7393 3b39 f9fe 7eba e420 0f3d a83c 3d3d
000003b0: a177 043e b66d 39b8 dd11 053e b0c2 033d
000003c0: 34ab 4a3c 9ab6 2e3c 0bea 9b3d b0a1 173e
000003d0: ed5e 833e 89f9 2439 0c09 013d bdbd 803b
000003e0: 75a3 763c 57b8 143c 4dc0 493d 5afa a33d
000003f0: e535 243b 779f 583e 206c 6739 4d42 813e

bn1.running_mean f4 [400]
4.0308356 19.443727 3.6400113 0.9618336 0.23375922 8.197111 0.36366028 3.3477232
0.20500253 4.440724 1.2323028 0.5065946 3.951926 0.31374583 0.6822282 0.8457317
1.6153405 0.6125357 9.459349 0.16448185 0.48612517 1.5177652 1.4294e-40 2.004435
1.2747486 1.5271053 0.33366442 0.91640145 5.116933 0.897541 3.6539104 3.022565
7.864531 1.0434831 1.402622 0.8140314 1.3835094 0.34780568 1.4586786 5.031533
0.6763715 0.280328 0.77556 0.28253347 28.297232 6.5493007 6.1727023 4.1488347
7.689302 12.663412 0.20095183 1.8656256 1.4672391 0.07023291 1.5150433 10.21941
0.9451308 0.5032601 1.522896 2.9806707 0.955057 0.34020817 0.018237792 0.0031471013
1.5788137 0.7999374 0.89556026 1.4161495 30.721813 1.771743 2.2482264 2.6649556
0.10156738 0.8804095 4.137929 1.8690027 0.12361394 1.1783001 4.2188635 2.4562194
1.2197175 28.795574 0.31909618 1.5845405 0.2618043 6.06848 2.565172 0.7268195
1.0321411 1.098577 2.0532472 2.202528 5.813619 0.59881055 3.267906 1.0998172
0.79128927 2.3660007 2.1135147 6.179924 8.999424 0.6150416 1.0116179 0.37309664
0.291702 0.15920421 1.2229452 0.45745918 3.8201146 1.7704617 25.495922 1.1449351
5.877366 1.4689021 5.2415743 0.34031248 1.5002284 0.6431292 0.16423687 18.727325
0.89344585 0.66153795 2.1862183 31.416252 0.25091863 1.0683548 0.95447236 5.1164656
4.9002285 4.6269417 0.49151143 1.0040399 4.4750247 1.8561283 0.77761406 2.9684775
0.78755575 11.924419 0.48874983 1.3373308 4.75168 7.0904083 1.4747792 3.712998
3.258482 6.55657 1.9488219 9.461705 7.279757 8.482331 0.76394624 4.616862
0.3551449 0.8369848 1.0036215 1.6369729 0.6511839 0.14676355 36.499557 1.6448239
20.092922 1.1045821 0.44268745 23.816484 0.45563373 1.6026876 1.3438907 0.5769689
1.5688974 0.08740183 1.0087767 1.7443885 0.4613043 1.1604517 0.5132382 0.72625846
0.3146821 1.5088176 0.7840199 0.14364076 32.0995 0.943389 1.8669257 0.8253587
8.274291 0.23082219 0.9667321 0.4820953 2.6443074 2.1417665 1.5582606 2.5388021
0.3911243 2.933468 0.08972765 3.38359 2.1292944 2.1910608 0.56752837 39.065628
3.3136313 1.3478466 0.9426474 9.245188 2.0660887 22.409779 5.846858 0.35263333
0.70284843 28.436037 5.169886 4.6107335 8.044452 3.6772232 9.080743 3.8553119
0.5925821 0.32342693 15.665472 4.4481306 13.511768 2.942227 0.11362035 11.767965
2.1928082 0.22386925 0.22938965 4.244824 1.1531584 1.8699524 10.736997 0.0007453526
5.996181e-05 0.3567964 0.32949135 2.9695442 1.2738006 0.009417352 3.9731667 0.27936625
2.5509772 0.16475506 25.150717 0.91494495 33.538525 0.792742 1.151842 5.9222183
1.0960068 0.34145916 2.4844437 5.763725 0.47412935 32.06091 0.14477418 0.81293124
00000000: 9bfc 8040 c18c 9b41 f2f5 6840 ba3a 763f
00000010: 945e 6f3e 5e27 0341 ae31 ba3e 1941 5640
00000020: 2fec 513e 691a 8e40 19bc 9d3f 2fb0 013f
00000030: 5bec 7c40 4ba3 a03e 82a6 2e3f df81 583f
00000040: 7ac3 ce3f 24cf 1c3f 7e59 1741 ee6d 283e
00000050: 66e5 f83e 2146 c23f 758e 0100 aa48 0040
00000060: f62a a33f 3078 c33f 10d6 aa3e 4999 6a3f
00000070: eabd a340 3fc5 653f abd9 6940 b471 4140
00000080: 3daa fb40 db90 853f 1e89 b33f 5d64 503f
00000090: d616 b13f 9613 b23e fbb5 ba3f 5102 a140
000000a0: af26 2d3f 2787 8f3e 1a8b 463f 3aa8 903e
000000b0: bb60 e241 df93 d140 c786 c540 41c3 8440
000000c0: c30e f640 569d 4a41 51c6 4d3e d2cc ee3f
000000d0: 7ece bb3f 46d6 8f3d f0ec c13f b482 2341
000000e0: 18f4 713f a7d5 003f 42ee c23f 4fc3 3e40
000000f0: 9e7e 743f c42f ae3e 6c67 953c 993f 4e3b
00000100: 9116 ca3f b3c8 4c3f 7043 653f 6344 b53f
00000110: 46c6 f541 7ac8 e23f f1e2 0f40 a28e 2a40
00000120: 8f02 d03d 8462 613f ea69 8440 7b3b ef3f
00000130: 4e29 fd3d 8ad2 963f ee00 8740 b332 1d40
00000140: b41f 9c3f 565d e641 9360 a33e 39d2 ca3f
00000150: 370b 863e fd30 c240 c72b 2440 d810 3a3f
00000160: 331d 843f 2c9e 8c3f 6768 0340 38f6 0c40
00000170: 2b09 ba40 a64b 193f 5f25 5140 cfc6 8c3f
00000180: ef91 4a3f 8e6c 1740 d343 0740 f0c1 c540
00000190: a4fd 0f41 5e73 1d3f b27c 813f 8606 bf3e
000001a0: f759 953e 6e06 233e 7889 9c3f 1738 ea3e
000001b0: c27c 7440 7d9e e23f a6f7 cb41 3c8d 923f
000001c0: 6213 bc40 fc04 bc3f faba a740 703d ae3e
000001d0: 7c07 c03f 1ea4 243f b62d 283e 90d1 9541
000001e0: deb8 643f 8d5a 293f 00eb 0b40 7c54 fb41
000001f0: 6878 803e dabf 883f 4d58 743f 16ba a340
00000200: acce 9c40 e80f 9440 63a7 fb3e 6184 803f
00000210: 6733 8f40 9d95 ed3f b711 473f 89fb 3d40
00000220: 419d 493f 6cca 3e41 6b3d fa3e a82d ab3f
00000230: c30d 9840 a0e4 e240 91c5 bc3f c2a1 6d40
00000240: f88a 5040 6ccf d140 ff72 f93f 2563 1741
00000250: c5f3 e840 a1b7 0741 fb91 433f 55bd 9340
00000260: 8dd5 b53e a344 563f ab76 803f 5488 d13f
00000270: fdb3 263f 2f49 163e 8cff 1142 9789 d23f
00000280: 4ebe a041 f262 8d3f eea7 e23e 2988 be41
00000290: d348 e93e de24 cd3f 9c04 ac3f 3cb4 133f
000002a0: a1d1 c83f bbff b23d 981f 813f 1f48 df3f
000002b0: 1430 ec3e ae89 943f 9463 033f 13ec 393f
000002c0: 031e a13e ef20 c13f 87b5 483f 9016 133e
000002d0: e365 0042 f181 713f 6cf7 ee3f b54a 533f
000002e0: 7f63 0441 a75c 6c3e c17b 773f 32d5 f63e
000002f0: 553c 2940 b412 0940 1575 c73f bc7b 2240
00000300: 7241 c83e f1bd 3b40 21c3 b73d bd8c 5840
00000310: 5c46 0840 573a 0c40 8a49 113f 3443 1c42
00000320: 8912 5440 3d86 ac3f 5751 713f 4aec 1341
00000330: cc3a 0440 3a47 b341 7619 bb40 5b8c b43e
00000340: e0ed 333f 017d e341 b56f a540 218b 9340
00000350: 13b6 0041 a057 6b40 b94a 1141 6ebd 7640
00000360: 76b3 173f 3798 a53e c6a5 7a41 1657 8e40
00000370: 3430 5841 724d 3c40 c9b1 e83d 9649 3c41
00000380: f856 0c40 fb3d 653e 1fe5 6a3e 99d5 8740
00000390: b29a 933f 9a5a ef3f bdca 2b41 c463 433a
000003a0: 817f 7b38 05ae b63e 17b3 a83e 030d 3e40
000003b0: e60b a33f 3d4b 1a3c 5d48 7e40 1809 8f3e
000003c0: 3643 2340 8db5 283e ab34 c941 d539 6a3f
000003d0: 7327 0642 24f1 4a3f 8f6f 933f d082 bd40
000003e0: f349 8c3f bcd3 ae3e 2001 1f40 6f70 b840
000003f0: 15c1 f23e 5f3e 0042 af3f 143e 431c 503f
